### RSDNET-R training prototxt #################

name: "rsdnet-saliency-ranking"


layer {
  name: "data"
  type: "Python"
  top: "data"
  top: "label"
  top: "count"
  include {
    phase:TRAIN
  }
  python_param {
    module: "rsdnet_data_layer"
    layer: "SegImageDataLayer"
    param_str: "{\"source\":\"./data/train.txt\",\"root_folder\":\".\",\"batch_size\":1,\"shuffle\":True,\"mirror\":True,\"mean_value\":(104.00699, 116.66877, 122.67892),\"crop_height\":321,\"crop_width\":321}"
  }
}

###################### NETWORK #####################

layer {
	bottom: "data"
	top: "conv1"
	name: "conv1"
	type: "Convolution"
	param {
		name: "conv1_0"
               lr_mult: 1
               decay_mult: 1
        }
        convolution_param {
		num_output: 64
		kernel_size: 7
		pad: 3
		stride: 2
		bias_term: false
	}
}

layer {
	bottom: "conv1"
	top: "conv1"
	name: "bn_conv1"
	type: "BatchNorm"
	batch_norm_param {
		use_global_stats: true
	}
	param {
		name: "bn_conv1_0"
	      lr_mult: 0
	}
	param {
		name: "bn_conv1_1"
	      lr_mult: 0
        }
	param {
		name: "bn_conv1_2"
	      lr_mult: 0
        }
}

layer {
	bottom: "conv1"
	top: "conv1"
	name: "scale_conv1"
	type: "Scale"
	scale_param {
		bias_term: true
	}
	param {
		name: "scale_conv1_0"
	      lr_mult: 0
	}
	param {
		name: "scale_conv1_1"
	      lr_mult: 0
	}
}

layer {
	top: "conv1"
	bottom: "conv1"
	name: "conv1_relu"
	type: "ReLU"
}

layer {
	bottom: "conv1"
	top: "pool1"
	name: "pool1"
	type: "Pooling"
	pooling_param {
		kernel_size: 3
		stride: 2
		pad: 1
		pool: MAX
	}
}

layer {
	bottom: "pool1"
	top: "res2a_branch1"
	name: "res2a_branch1"
	type: "Convolution"
	param {
		name: "res2a_branch1_0"
               lr_mult: 1
               decay_mult: 1
        }
        convolution_param {
		num_output: 256
		kernel_size: 1
		pad: 0
		stride: 1
		bias_term: false
	}
}

layer {
	bottom: "res2a_branch1"
	top: "res2a_branch1"
	name: "bn2a_branch1"
	type: "BatchNorm"
	batch_norm_param {
		use_global_stats: true
	}
	param {
		name: "bn2a_branch1_0"
	      lr_mult: 0
	}
	param {
		name: "bn2a_branch1_1"
	      lr_mult: 0
        }
	param {
		name: "bn2a_branch1_2"
	      lr_mult: 0
        }
}

layer {
	bottom: "res2a_branch1"
	top: "res2a_branch1"
	name: "scale2a_branch1"
	type: "Scale"
	scale_param {
		bias_term: true
	}
	param {
		name: "scale2a_branch1_0"
	      lr_mult: 0
	}
	param {
		name: "scale2a_branch1_1"
	      lr_mult: 0
	}
}

layer {
	bottom: "pool1"
	top: "res2a_branch2a"
	name: "res2a_branch2a"
	type: "Convolution"
	param {
		name: "res2a_branch2a_0"
               lr_mult: 1
               decay_mult: 1
        }
        convolution_param {
		num_output: 64
		kernel_size: 1
		pad: 0
		stride: 1
		bias_term: false
	}
}

layer {
	bottom: "res2a_branch2a"
	top: "res2a_branch2a"
	name: "bn2a_branch2a"
	type: "BatchNorm"
	batch_norm_param {
		use_global_stats: true
	}
	param {
		name: "bn2a_branch2a_0"
	      lr_mult: 0
	}
	param {
		name: "bn2a_branch2a_1"
	      lr_mult: 0
        }
	param {
		name: "bn2a_branch2a_2"
	      lr_mult: 0
        }
}

layer {
	bottom: "res2a_branch2a"
	top: "res2a_branch2a"
	name: "scale2a_branch2a"
	type: "Scale"
	scale_param {
		bias_term: true
	}
	param {
		name: "scale2a_branch2a_0"
	      lr_mult: 0
	}
	param {
		name: "scale2a_branch2a_1"
	      lr_mult: 0
	}
}

layer {
	top: "res2a_branch2a"
	bottom: "res2a_branch2a"
	name: "res2a_branch2a_relu"
	type: "ReLU"
}

layer {
	bottom: "res2a_branch2a"
	top: "res2a_branch2b"
	name: "res2a_branch2b"
	type: "Convolution"
	param {
		name: "res2a_branch2b_0"
               lr_mult: 1
               decay_mult: 1
        }
        convolution_param {
		num_output: 64
		kernel_size: 3
		pad: 1
		stride: 1
		bias_term: false
	}
}

layer {
	bottom: "res2a_branch2b"
	top: "res2a_branch2b"
	name: "bn2a_branch2b"
	type: "BatchNorm"
	batch_norm_param {
		use_global_stats: true
	}
	param {
		name: "bn2a_branch2b_0"
	      lr_mult: 0
	}
	param {
		name: "bn2a_branch2b_1"
	      lr_mult: 0
        }
	param {
		name: "bn2a_branch2b_2"
	      lr_mult: 0
        }
}

layer {
	bottom: "res2a_branch2b"
	top: "res2a_branch2b"
	name: "scale2a_branch2b"
	type: "Scale"
	scale_param {
		bias_term: true
	}
	param {
		name: "scale2a_branch2b_0"
	      lr_mult: 0
	}
	param {
		name: "scale2a_branch2b_1"
	      lr_mult: 0
	}
}

layer {
	top: "res2a_branch2b"
	bottom: "res2a_branch2b"
	name: "res2a_branch2b_relu"
	type: "ReLU"
}

layer {
	bottom: "res2a_branch2b"
	top: "res2a_branch2c"
	name: "res2a_branch2c"
	type: "Convolution"
	param {
		name: "res2a_branch2c_0"
               lr_mult: 1
               decay_mult: 1
        }
        convolution_param {
		num_output: 256
		kernel_size: 1
		pad: 0
		stride: 1
		bias_term: false
	}
}

layer {
	bottom: "res2a_branch2c"
	top: "res2a_branch2c"
	name: "bn2a_branch2c"
	type: "BatchNorm"
	batch_norm_param {
		use_global_stats: true
	}
	param {
		name: "bn2a_branch2c_0"
	      lr_mult: 0
	}
	param {
		name: "bn2a_branch2c_1"
	      lr_mult: 0
        }
	param {
		name: "bn2a_branch2c_2"
	      lr_mult: 0
        }
}

layer {
	bottom: "res2a_branch2c"
	top: "res2a_branch2c"
	name: "scale2a_branch2c"
	type: "Scale"
	scale_param {
		bias_term: true
	}
	param {
		name: "scale2a_branch2c_0"
	      lr_mult: 0
	}
	param {
		name: "scale2a_branch2c_1"
	      lr_mult: 0
	}
}

layer {
	bottom: "res2a_branch1"
	bottom: "res2a_branch2c"
	top: "res2a"
	name: "res2a"
	type: "Eltwise"
}

layer {
	bottom: "res2a"
	top: "res2a"
	name: "res2a_relu"
	type: "ReLU"
}

layer {
	bottom: "res2a"
	top: "res2b_branch2a"
	name: "res2b_branch2a"
	type: "Convolution"
	param {
		name: "res2b_branch2a_0"
               lr_mult: 1
               decay_mult: 1
        }
        convolution_param {
		num_output: 64
		kernel_size: 1
		pad: 0
		stride: 1
		bias_term: false
	}
}

layer {
	bottom: "res2b_branch2a"
	top: "res2b_branch2a"
	name: "bn2b_branch2a"
	type: "BatchNorm"
	batch_norm_param {
		use_global_stats: true
	}
	param {
		name: "bn2b_branch2a_0"
	      lr_mult: 0
	}
	param {
		name: "bn2b_branch2a_1"
	      lr_mult: 0
        }
	param {
		name: "bn2b_branch2a_2"
	      lr_mult: 0
        }
}

layer {
	bottom: "res2b_branch2a"
	top: "res2b_branch2a"
	name: "scale2b_branch2a"
	type: "Scale"
	scale_param {
		bias_term: true
	}
	param {
		name: "scale2b_branch2a_0"
	      lr_mult: 0
	}
	param {
		name: "scale2b_branch2a_1"
	      lr_mult: 0
	}
}

layer {
	top: "res2b_branch2a"
	bottom: "res2b_branch2a"
	name: "res2b_branch2a_relu"
	type: "ReLU"
}

layer {
	bottom: "res2b_branch2a"
	top: "res2b_branch2b"
	name: "res2b_branch2b"
	type: "Convolution"
	param {
		name: "res2b_branch2b_0"
               lr_mult: 1
               decay_mult: 1
        }
        convolution_param {
		num_output: 64
		kernel_size: 3
		pad: 1
		stride: 1
		bias_term: false
	}
}

layer {
	bottom: "res2b_branch2b"
	top: "res2b_branch2b"
	name: "bn2b_branch2b"
	type: "BatchNorm"
	batch_norm_param {
		use_global_stats: true
	}
	param {
		name: "bn2b_branch2b_0"
	      lr_mult: 0
	}
	param {
		name: "bn2b_branch2b_1"
	      lr_mult: 0
        }
	param {
		name: "bn2b_branch2b_2"
	      lr_mult: 0
        }
}

layer {
	bottom: "res2b_branch2b"
	top: "res2b_branch2b"
	name: "scale2b_branch2b"
	type: "Scale"
	scale_param {
		bias_term: true
	}
	param {
		name: "scale2b_branch2b_0"
	      lr_mult: 0
	}
	param {
		name: "scale2b_branch2b_1"
	      lr_mult: 0
	}
}

layer {
	top: "res2b_branch2b"
	bottom: "res2b_branch2b"
	name: "res2b_branch2b_relu"
	type: "ReLU"
}

layer {
	bottom: "res2b_branch2b"
	top: "res2b_branch2c"
	name: "res2b_branch2c"
	type: "Convolution"
	param {
		name: "res2b_branch2c_0"
               lr_mult: 1
               decay_mult: 1
        }
        convolution_param {
		num_output: 256
		kernel_size: 1
		pad: 0
		stride: 1
		bias_term: false
	}
}

layer {
	bottom: "res2b_branch2c"
	top: "res2b_branch2c"
	name: "bn2b_branch2c"
	type: "BatchNorm"
	batch_norm_param {
		use_global_stats: true
	}
	param {
		name: "bn2b_branch2c_0"
	      lr_mult: 0
	}
	param {
		name: "bn2b_branch2c_1"
	      lr_mult: 0
        }
	param {
		name: "bn2b_branch2c_2"
	      lr_mult: 0
        }
}

layer {
	bottom: "res2b_branch2c"
	top: "res2b_branch2c"
	name: "scale2b_branch2c"
	type: "Scale"
	scale_param {
		bias_term: true
	}
	param {
		name: "scale2b_branch2c_0"
	      lr_mult: 0
	}
	param {
		name: "scale2b_branch2c_1"
	      lr_mult: 0
	}
}

layer {
	bottom: "res2a"
	bottom: "res2b_branch2c"
	top: "res2b"
	name: "res2b"
	type: "Eltwise"
}

layer {
	bottom: "res2b"
	top: "res2b"
	name: "res2b_relu"
	type: "ReLU"
}

layer {
	bottom: "res2b"
	top: "res2c_branch2a"
	name: "res2c_branch2a"
	type: "Convolution"
	param {
		name: "res2c_branch2a_0"
               lr_mult: 1
               decay_mult: 1
        }
        convolution_param {
		num_output: 64
		kernel_size: 1
		pad: 0
		stride: 1
		bias_term: false
	}
}

layer {
	bottom: "res2c_branch2a"
	top: "res2c_branch2a"
	name: "bn2c_branch2a"
	type: "BatchNorm"
	batch_norm_param {
		use_global_stats: true
	}
	param {
		name: "bn2c_branch2a_0"
	      lr_mult: 0
	}
	param {
		name: "bn2c_branch2a_1"
	      lr_mult: 0
        }
	param {
		name: "bn2c_branch2a_2"
	      lr_mult: 0
        }
}

layer {
	bottom: "res2c_branch2a"
	top: "res2c_branch2a"
	name: "scale2c_branch2a"
	type: "Scale"
	scale_param {
		bias_term: true
	}
	param {
		name: "scale2c_branch2a_0"
	      lr_mult: 0
	}
	param {
		name: "scale2c_branch2a_1"
	      lr_mult: 0
	}
}

layer {
	top: "res2c_branch2a"
	bottom: "res2c_branch2a"
	name: "res2c_branch2a_relu"
	type: "ReLU"
}

layer {
	bottom: "res2c_branch2a"
	top: "res2c_branch2b"
	name: "res2c_branch2b"
	type: "Convolution"
	param {
		name: "res2c_branch2b_0"
               lr_mult: 1
               decay_mult: 1
        }
        convolution_param {
		num_output: 64
		kernel_size: 3
		pad: 1
		stride: 1
		bias_term: false
	}
}

layer {
	bottom: "res2c_branch2b"
	top: "res2c_branch2b"
	name: "bn2c_branch2b"
	type: "BatchNorm"
	batch_norm_param {
		use_global_stats: true
	}
	param {
		name: "bn2c_branch2b_0"
	      lr_mult: 0
	}
	param {
		name: "bn2c_branch2b_1"
	      lr_mult: 0
        }
	param {
		name: "bn2c_branch2b_2"
	      lr_mult: 0
        }
}

layer {
	bottom: "res2c_branch2b"
	top: "res2c_branch2b"
	name: "scale2c_branch2b"
	type: "Scale"
	scale_param {
		bias_term: true
	}
	param {
		name: "scale2c_branch2b_0"
	      lr_mult: 0
	}
	param {
		name: "scale2c_branch2b_1"
	      lr_mult: 0
	}
}

layer {
	top: "res2c_branch2b"
	bottom: "res2c_branch2b"
	name: "res2c_branch2b_relu"
	type: "ReLU"
}

layer {
	bottom: "res2c_branch2b"
	top: "res2c_branch2c"
	name: "res2c_branch2c"
	type: "Convolution"
	param {
		name: "res2c_branch2c_0"
               lr_mult: 1
               decay_mult: 1
        }
        convolution_param {
		num_output: 256
		kernel_size: 1
		pad: 0
		stride: 1
		bias_term: false
	}
}

layer {
	bottom: "res2c_branch2c"
	top: "res2c_branch2c"
	name: "bn2c_branch2c"
	type: "BatchNorm"
	batch_norm_param {
		use_global_stats: true
	}
	param {
		name: "bn2c_branch2c_0"
	      lr_mult: 0
	}
	param {
		name: "bn2c_branch2c_1"
	      lr_mult: 0
        }
	param {
		name: "bn2c_branch2c_2"
	      lr_mult: 0
        }
}

layer {
	bottom: "res2c_branch2c"
	top: "res2c_branch2c"
	name: "scale2c_branch2c"
	type: "Scale"
	scale_param {
		bias_term: true
	}
	param {
		name: "scale2c_branch2c_0"
	      lr_mult: 0
	}
	param {
		name: "scale2c_branch2c_1"
	      lr_mult: 0
	}
}

layer {
	bottom: "res2b"
	bottom: "res2c_branch2c"
	top: "res2c"
	name: "res2c"
	type: "Eltwise"
}

layer {
	bottom: "res2c"
	top: "res2c"
	name: "res2c_relu"
	type: "ReLU"
}

layer {
	bottom: "res2c"
	top: "res3a_branch1"
	name: "res3a_branch1"
	type: "Convolution"
	param {
		name: "res3a_branch1_0"
               lr_mult: 1
               decay_mult: 1
        }
        convolution_param {
		num_output: 512
		kernel_size: 1
		pad: 0
		stride: 2
		bias_term: false
	}
}

layer {
	bottom: "res3a_branch1"
	top: "res3a_branch1"
	name: "bn3a_branch1"
	type: "BatchNorm"
	batch_norm_param {
		use_global_stats: true
	}
	param {
		name: "bn3a_branch1_0"
	      lr_mult: 0
	}
	param {
		name: "bn3a_branch1_1"
	      lr_mult: 0
        }
	param {
		name: "bn3a_branch1_2"
	      lr_mult: 0
        }
}

layer {
	bottom: "res3a_branch1"
	top: "res3a_branch1"
	name: "scale3a_branch1"
	type: "Scale"
	scale_param {
		bias_term: true
	}
	param {
		name: "scale3a_branch1_0"
	      lr_mult: 0
	}
	param {
		name: "scale3a_branch1_1"
	      lr_mult: 0
	}
}

layer {
	bottom: "res2c"
	top: "res3a_branch2a"
	name: "res3a_branch2a"
	type: "Convolution"
	param {
		name: "res3a_branch2a_0"
               lr_mult: 1
               decay_mult: 1
        }
        convolution_param {
		num_output: 128
		kernel_size: 1
		pad: 0
		stride: 2
		bias_term: false
	}
}

layer {
	bottom: "res3a_branch2a"
	top: "res3a_branch2a"
	name: "bn3a_branch2a"
	type: "BatchNorm"
	batch_norm_param {
		use_global_stats: true
	}
	param {
		name: "bn3a_branch2a_0"
	      lr_mult: 0
	}
	param {
		name: "bn3a_branch2a_1"
	      lr_mult: 0
        }
	param {
		name: "bn3a_branch2a_2"
	      lr_mult: 0
        }
}

layer {
	bottom: "res3a_branch2a"
	top: "res3a_branch2a"
	name: "scale3a_branch2a"
	type: "Scale"
	scale_param {
		bias_term: true
	}
	param {
		name: "scale3a_branch2a_0"
	      lr_mult: 0
	}
	param {
		name: "scale3a_branch2a_1"
	      lr_mult: 0
	}
}

layer {
	top: "res3a_branch2a"
	bottom: "res3a_branch2a"
	name: "res3a_branch2a_relu"
	type: "ReLU"
}

layer {
	bottom: "res3a_branch2a"
	top: "res3a_branch2b"
	name: "res3a_branch2b"
	type: "Convolution"
	param {
		name: "res3a_branch2b_0"
               lr_mult: 1
               decay_mult: 1
        }
        convolution_param {
		num_output: 128
		kernel_size: 3
		pad: 1
		stride: 1
		bias_term: false
	}
}

layer {
	bottom: "res3a_branch2b"
	top: "res3a_branch2b"
	name: "bn3a_branch2b"
	type: "BatchNorm"
	batch_norm_param {
		use_global_stats: true
	}
	param {
		name: "bn3a_branch2b_0"
	      lr_mult: 0
	}
	param {
		name: "bn3a_branch2b_1"
	      lr_mult: 0
        }
	param {
		name: "bn3a_branch2b_2"
	      lr_mult: 0
        }
}

layer {
	bottom: "res3a_branch2b"
	top: "res3a_branch2b"
	name: "scale3a_branch2b"
	type: "Scale"
	scale_param {
		bias_term: true
	}
	param {
		name: "scale3a_branch2b_0"
	      lr_mult: 0
	}
	param {
		name: "scale3a_branch2b_1"
	      lr_mult: 0
	}
}

layer {
	top: "res3a_branch2b"
	bottom: "res3a_branch2b"
	name: "res3a_branch2b_relu"
	type: "ReLU"
}

layer {
	bottom: "res3a_branch2b"
	top: "res3a_branch2c"
	name: "res3a_branch2c"
	type: "Convolution"
	param {
		name: "res3a_branch2c_0"
               lr_mult: 1
               decay_mult: 1
        }
        convolution_param {
		num_output: 512
		kernel_size: 1
		pad: 0
		stride: 1
		bias_term: false
	}
}

layer {
	bottom: "res3a_branch2c"
	top: "res3a_branch2c"
	name: "bn3a_branch2c"
	type: "BatchNorm"
	batch_norm_param {
		use_global_stats: true
	}
	param {
		name: "bn3a_branch2c_0"
	      lr_mult: 0
	}
	param {
		name: "bn3a_branch2c_1"
	      lr_mult: 0
        }
	param {
		name: "bn3a_branch2c_2"
	      lr_mult: 0
        }
}

layer {
	bottom: "res3a_branch2c"
	top: "res3a_branch2c"
	name: "scale3a_branch2c"
	type: "Scale"
	scale_param {
		bias_term: true
	}
	param {
		name: "scale3a_branch2c_0"
	      lr_mult: 0
	}
	param {
		name: "scale3a_branch2c_1"
	      lr_mult: 0
	}
}

layer {
	bottom: "res3a_branch1"
	bottom: "res3a_branch2c"
	top: "res3a"
	name: "res3a"
	type: "Eltwise"
}

layer {
	bottom: "res3a"
	top: "res3a"
	name: "res3a_relu"
	type: "ReLU"
}

layer {
	bottom: "res3a"
	top: "res3b1_branch2a"
	name: "res3b1_branch2a"
	type: "Convolution"
	param {
		name: "res3b1_branch2a_0"
               lr_mult: 1
               decay_mult: 1
        }
        convolution_param {
		num_output: 128
		kernel_size: 1
		pad: 0
		stride: 1
		bias_term: false
	}
}

layer {
	bottom: "res3b1_branch2a"
	top: "res3b1_branch2a"
	name: "bn3b1_branch2a"
	type: "BatchNorm"
	batch_norm_param {
		use_global_stats: true
	}
	param {
		name: "bn3b1_branch2a_0"
	      lr_mult: 0
	}
	param {
		name: "bn3b1_branch2a_1"
	      lr_mult: 0
        }
	param {
		name: "bn3b1_branch2a_2"
	      lr_mult: 0
        }
}

layer {
	bottom: "res3b1_branch2a"
	top: "res3b1_branch2a"
	name: "scale3b1_branch2a"
	type: "Scale"
	scale_param {
		bias_term: true
	}
	param {
		name: "scale3b1_branch2a_0"
	      lr_mult: 0
	}
	param {
		name: "scale3b1_branch2a_1"
	      lr_mult: 0
	}
}

layer {
	top: "res3b1_branch2a"
	bottom: "res3b1_branch2a"
	name: "res3b1_branch2a_relu"
	type: "ReLU"
}

layer {
	bottom: "res3b1_branch2a"
	top: "res3b1_branch2b"
	name: "res3b1_branch2b"
	type: "Convolution"
	param {
		name: "res3b1_branch2b_0"
               lr_mult: 1
               decay_mult: 1
        }
        convolution_param {
		num_output: 128
		kernel_size: 3
		pad: 1
		stride: 1
		bias_term: false
	}
}

layer {
	bottom: "res3b1_branch2b"
	top: "res3b1_branch2b"
	name: "bn3b1_branch2b"
	type: "BatchNorm"
	batch_norm_param {
		use_global_stats: true
	}
	param {
		name: "bn3b1_branch2b_0"
	      lr_mult: 0
	}
	param {
		name: "bn3b1_branch2b_1"
	      lr_mult: 0
        }
	param {
		name: "bn3b1_branch2b_2"
	      lr_mult: 0
        }
}

layer {
	bottom: "res3b1_branch2b"
	top: "res3b1_branch2b"
	name: "scale3b1_branch2b"
	type: "Scale"
	scale_param {
		bias_term: true
	}
	param {
		name: "scale3b1_branch2b_0"
	      lr_mult: 0
	}
	param {
		name: "scale3b1_branch2b_1"
	      lr_mult: 0
	}
}

layer {
	top: "res3b1_branch2b"
	bottom: "res3b1_branch2b"
	name: "res3b1_branch2b_relu"
	type: "ReLU"
}

layer {
	bottom: "res3b1_branch2b"
	top: "res3b1_branch2c"
	name: "res3b1_branch2c"
	type: "Convolution"
	param {
		name: "res3b1_branch2c_0"
               lr_mult: 1
               decay_mult: 1
        }
        convolution_param {
		num_output: 512
		kernel_size: 1
		pad: 0
		stride: 1
		bias_term: false
	}
}

layer {
	bottom: "res3b1_branch2c"
	top: "res3b1_branch2c"
	name: "bn3b1_branch2c"
	type: "BatchNorm"
	batch_norm_param {
		use_global_stats: true
	}
	param {
		name: "bn3b1_branch2c_0"
	      lr_mult: 0
	}
	param {
		name: "bn3b1_branch2c_1"
	      lr_mult: 0
        }
	param {
		name: "bn3b1_branch2c_2"
	      lr_mult: 0
        }
}

layer {
	bottom: "res3b1_branch2c"
	top: "res3b1_branch2c"
	name: "scale3b1_branch2c"
	type: "Scale"
	scale_param {
		bias_term: true
	}
	param {
		name: "scale3b1_branch2c_0"
	      lr_mult: 0
	}
	param {
		name: "scale3b1_branch2c_1"
	      lr_mult: 0
	}
}

layer {
	bottom: "res3a"
	bottom: "res3b1_branch2c"
	top: "res3b1"
	name: "res3b1"
	type: "Eltwise"
}

layer {
	bottom: "res3b1"
	top: "res3b1"
	name: "res3b1_relu"
	type: "ReLU"
}

layer {
	bottom: "res3b1"
	top: "res3b2_branch2a"
	name: "res3b2_branch2a"
	type: "Convolution"
	param {
		name: "res3b2_branch2a_0"
               lr_mult: 1
               decay_mult: 1
        }
        convolution_param {
		num_output: 128
		kernel_size: 1
		pad: 0
		stride: 1
		bias_term: false
	}
}

layer {
	bottom: "res3b2_branch2a"
	top: "res3b2_branch2a"
	name: "bn3b2_branch2a"
	type: "BatchNorm"
	batch_norm_param {
		use_global_stats: true
	}
	param {
		name: "bn3b2_branch2a_0"
	      lr_mult: 0
	}
	param {
		name: "bn3b2_branch2a_1"
	      lr_mult: 0
        }
	param {
		name: "bn3b2_branch2a_2"
	      lr_mult: 0
        }
}

layer {
	bottom: "res3b2_branch2a"
	top: "res3b2_branch2a"
	name: "scale3b2_branch2a"
	type: "Scale"
	scale_param {
		bias_term: true
	}
	param {
		name: "scale3b2_branch2a_0"
	      lr_mult: 0
	}
	param {
		name: "scale3b2_branch2a_1"
	      lr_mult: 0
	}
}

layer {
	top: "res3b2_branch2a"
	bottom: "res3b2_branch2a"
	name: "res3b2_branch2a_relu"
	type: "ReLU"
}

layer {
	bottom: "res3b2_branch2a"
	top: "res3b2_branch2b"
	name: "res3b2_branch2b"
	type: "Convolution"
	param {
		name: "res3b2_branch2b_0"
               lr_mult: 1
               decay_mult: 1
        }
        convolution_param {
		num_output: 128
		kernel_size: 3
		pad: 1
		stride: 1
		bias_term: false
	}
}

layer {
	bottom: "res3b2_branch2b"
	top: "res3b2_branch2b"
	name: "bn3b2_branch2b"
	type: "BatchNorm"
	batch_norm_param {
		use_global_stats: true
	}
	param {
		name: "bn3b2_branch2b_0"
	      lr_mult: 0
	}
	param {
		name: "bn3b2_branch2b_1"
	      lr_mult: 0
        }
	param {
		name: "bn3b2_branch2b_2"
	      lr_mult: 0
        }
}

layer {
	bottom: "res3b2_branch2b"
	top: "res3b2_branch2b"
	name: "scale3b2_branch2b"
	type: "Scale"
	scale_param {
		bias_term: true
	}
	param {
		name: "scale3b2_branch2b_0"
	      lr_mult: 0
	}
	param {
		name: "scale3b2_branch2b_1"
	      lr_mult: 0
	}
}

layer {
	top: "res3b2_branch2b"
	bottom: "res3b2_branch2b"
	name: "res3b2_branch2b_relu"
	type: "ReLU"
}

layer {
	bottom: "res3b2_branch2b"
	top: "res3b2_branch2c"
	name: "res3b2_branch2c"
	type: "Convolution"
	param {
		name: "res3b2_branch2c_0"
               lr_mult: 1
               decay_mult: 1
        }
        convolution_param {
		num_output: 512
		kernel_size: 1
		pad: 0
		stride: 1
		bias_term: false
	}
}

layer {
	bottom: "res3b2_branch2c"
	top: "res3b2_branch2c"
	name: "bn3b2_branch2c"
	type: "BatchNorm"
	batch_norm_param {
		use_global_stats: true
	}
	param {
		name: "bn3b2_branch2c_0"
	      lr_mult: 0
	}
	param {
		name: "bn3b2_branch2c_1"
	      lr_mult: 0
        }
	param {
		name: "bn3b2_branch2c_2"
	      lr_mult: 0
        }
}

layer {
	bottom: "res3b2_branch2c"
	top: "res3b2_branch2c"
	name: "scale3b2_branch2c"
	type: "Scale"
	scale_param {
		bias_term: true
	}
	param {
		name: "scale3b2_branch2c_0"
	      lr_mult: 0
	}
	param {
		name: "scale3b2_branch2c_1"
	      lr_mult: 0
	}
}

layer {
	bottom: "res3b1"
	bottom: "res3b2_branch2c"
	top: "res3b2"
	name: "res3b2"
	type: "Eltwise"
}

layer {
	bottom: "res3b2"
	top: "res3b2"
	name: "res3b2_relu"
	type: "ReLU"
}

layer {
	bottom: "res3b2"
	top: "res3b3_branch2a"
	name: "res3b3_branch2a"
	type: "Convolution"
	param {
		name: "res3b3_branch2a_0"
               lr_mult: 1
               decay_mult: 1
        }
        convolution_param {
		num_output: 128
		kernel_size: 1
		pad: 0
		stride: 1
		bias_term: false
	}
}

layer {
	bottom: "res3b3_branch2a"
	top: "res3b3_branch2a"
	name: "bn3b3_branch2a"
	type: "BatchNorm"
	batch_norm_param {
		use_global_stats: true
	}
	param {
		name: "bn3b3_branch2a_0"
	      lr_mult: 0
	}
	param {
		name: "bn3b3_branch2a_1"
	      lr_mult: 0
        }
	param {
		name: "bn3b3_branch2a_2"
	      lr_mult: 0
        }
}

layer {
	bottom: "res3b3_branch2a"
	top: "res3b3_branch2a"
	name: "scale3b3_branch2a"
	type: "Scale"
	scale_param {
		bias_term: true
	}
	param {
		name: "scale3b3_branch2a_0"
	      lr_mult: 0
	}
	param {
		name: "scale3b3_branch2a_1"
	      lr_mult: 0
	}
}

layer {
	top: "res3b3_branch2a"
	bottom: "res3b3_branch2a"
	name: "res3b3_branch2a_relu"
	type: "ReLU"
}

layer {
	bottom: "res3b3_branch2a"
	top: "res3b3_branch2b"
	name: "res3b3_branch2b"
	type: "Convolution"
	param {
		name: "res3b3_branch2b_0"
               lr_mult: 1
               decay_mult: 1
        }
        convolution_param {
		num_output: 128
		kernel_size: 3
		pad: 1
		stride: 1
		bias_term: false
	}
}

layer {
	bottom: "res3b3_branch2b"
	top: "res3b3_branch2b"
	name: "bn3b3_branch2b"
	type: "BatchNorm"
	batch_norm_param {
		use_global_stats: true
	}
	param {
		name: "bn3b3_branch2b_0"
	      lr_mult: 0
	}
	param {
		name: "bn3b3_branch2b_1"
	      lr_mult: 0
        }
	param {
		name: "bn3b3_branch2b_2"
	      lr_mult: 0
        }
}

layer {
	bottom: "res3b3_branch2b"
	top: "res3b3_branch2b"
	name: "scale3b3_branch2b"
	type: "Scale"
	scale_param {
		bias_term: true
	}
	param {
		name: "scale3b3_branch2b_0"
	      lr_mult: 0
	}
	param {
		name: "scale3b3_branch2b_1"
	      lr_mult: 0
	}
}

layer {
	top: "res3b3_branch2b"
	bottom: "res3b3_branch2b"
	name: "res3b3_branch2b_relu"
	type: "ReLU"
}

layer {
	bottom: "res3b3_branch2b"
	top: "res3b3_branch2c"
	name: "res3b3_branch2c"
	type: "Convolution"
	param {
		name: "res3b3_branch2c_0"
               lr_mult: 1
               decay_mult: 1
        }
        convolution_param {
		num_output: 512
		kernel_size: 1
		pad: 0
		stride: 1
		bias_term: false
	}
}

layer {
	bottom: "res3b3_branch2c"
	top: "res3b3_branch2c"
	name: "bn3b3_branch2c"
	type: "BatchNorm"
	batch_norm_param {
		use_global_stats: true
	}
	param {
		name: "bn3b3_branch2c_0"
	      lr_mult: 0
	}
	param {
		name: "bn3b3_branch2c_1"
	      lr_mult: 0
        }
	param {
		name: "bn3b3_branch2c_2"
	      lr_mult: 0
        }
}

layer {
	bottom: "res3b3_branch2c"
	top: "res3b3_branch2c"
	name: "scale3b3_branch2c"
	type: "Scale"
	scale_param {
		bias_term: true
	}
	param {
		name: "scale3b3_branch2c_0"
	      lr_mult: 0
	}
	param {
		name: "scale3b3_branch2c_1"
	      lr_mult: 0
	}
}

layer {
	bottom: "res3b2"
	bottom: "res3b3_branch2c"
	top: "res3b3"
	name: "res3b3"
	type: "Eltwise"
}

layer {
	bottom: "res3b3"
	top: "res3b3"
	name: "res3b3_relu"
	type: "ReLU"
}

layer {
	bottom: "res3b3"
	top: "res4a_branch1"
	name: "res4a_branch1"
	type: "Convolution"
	param {
		name: "res4a_branch1_0"
               lr_mult: 1
               decay_mult: 1
        }
        convolution_param {
		num_output: 1024
		kernel_size: 1
		pad: 0
		stride: 1
		bias_term: false
	}
}

layer {
	bottom: "res4a_branch1"
	top: "res4a_branch1"
	name: "bn4a_branch1"
	type: "BatchNorm"
	batch_norm_param {
		use_global_stats: true
	}
	param {
		name: "bn4a_branch1_0"
	      lr_mult: 0
	}
	param {
		name: "bn4a_branch1_1"
	      lr_mult: 0
        }
	param {
		name: "bn4a_branch1_2"
	      lr_mult: 0
        }
}

layer {
	bottom: "res4a_branch1"
	top: "res4a_branch1"
	name: "scale4a_branch1"
	type: "Scale"
	scale_param {
		bias_term: true
	}
	param {
		name: "scale4a_branch1_0"
	      lr_mult: 0
	}
	param {
		name: "scale4a_branch1_1"
	      lr_mult: 0
	}
}

layer {
	bottom: "res3b3"
	top: "res4a_branch2a"
	name: "res4a_branch2a"
	type: "Convolution"
	param {
		name: "res4a_branch2a_0"
               lr_mult: 1
               decay_mult: 1
        }
        convolution_param {
		num_output: 256
		kernel_size: 1
		pad: 0
		stride: 1
		bias_term: false
	}
}

layer {
	bottom: "res4a_branch2a"
	top: "res4a_branch2a"
	name: "bn4a_branch2a"
	type: "BatchNorm"
	batch_norm_param {
		use_global_stats: true
	}
	param {
		name: "bn4a_branch2a_0"
	      lr_mult: 0
	}
	param {
		name: "bn4a_branch2a_1"
	      lr_mult: 0
        }
	param {
		name: "bn4a_branch2a_2"
	      lr_mult: 0
        }
}

layer {
	bottom: "res4a_branch2a"
	top: "res4a_branch2a"
	name: "scale4a_branch2a"
	type: "Scale"
	scale_param {
		bias_term: true
	}
	param {
		name: "scale4a_branch2a_0"
	      lr_mult: 0
	}
	param {
		name: "scale4a_branch2a_1"
	      lr_mult: 0
	}
}

layer {
	top: "res4a_branch2a"
	bottom: "res4a_branch2a"
	name: "res4a_branch2a_relu"
	type: "ReLU"
}

layer {
	bottom: "res4a_branch2a"
	top: "res4a_branch2b"
	name: "res4a_branch2b"
	type: "Convolution"
	param {
		name: "res4a_branch2b_0"
               lr_mult: 1
               decay_mult: 1
        }
        convolution_param {
		num_output: 256
		kernel_size: 3
		pad: 2
		dilation: 2
		stride: 1
		bias_term: false
	}
}

layer {
	bottom: "res4a_branch2b"
	top: "res4a_branch2b"
	name: "bn4a_branch2b"
	type: "BatchNorm"
	batch_norm_param {
		use_global_stats: true
	}
	param {
		name: "bn4a_branch2b_0"
	      lr_mult: 0
	}
	param {
		name: "bn4a_branch2b_1"
	      lr_mult: 0
        }
	param {
		name: "bn4a_branch2b_2"
	      lr_mult: 0
        }
}

layer {
	bottom: "res4a_branch2b"
	top: "res4a_branch2b"
	name: "scale4a_branch2b"
	type: "Scale"
	scale_param {
		bias_term: true
	}
	param {
		name: "scale4a_branch2b_0"
	      lr_mult: 0
	}
	param {
		name: "scale4a_branch2b_1"
	      lr_mult: 0
	}
}

layer {
	top: "res4a_branch2b"
	bottom: "res4a_branch2b"
	name: "res4a_branch2b_relu"
	type: "ReLU"
}

layer {
	bottom: "res4a_branch2b"
	top: "res4a_branch2c"
	name: "res4a_branch2c"
	type: "Convolution"
	param {
		name: "res4a_branch2c_0"
               lr_mult: 1
               decay_mult: 1
        }
        convolution_param {
		num_output: 1024
		kernel_size: 1
		pad: 0
		stride: 1
		bias_term: false
	}
}

layer {
	bottom: "res4a_branch2c"
	top: "res4a_branch2c"
	name: "bn4a_branch2c"
	type: "BatchNorm"
	batch_norm_param {
		use_global_stats: true
	}
	param {
		name: "bn4a_branch2c_0"
	      lr_mult: 0
	}
	param {
		name: "bn4a_branch2c_1"
	      lr_mult: 0
        }
	param {
		name: "bn4a_branch2c_2"
	      lr_mult: 0
        }
}

layer {
	bottom: "res4a_branch2c"
	top: "res4a_branch2c"
	name: "scale4a_branch2c"
	type: "Scale"
	scale_param {
		bias_term: true
	}
	param {
		name: "scale4a_branch2c_0"
	      lr_mult: 0
	}
	param {
		name: "scale4a_branch2c_1"
	      lr_mult: 0
	}
}

layer {
	bottom: "res4a_branch1"
	bottom: "res4a_branch2c"
	top: "res4a"
	name: "res4a"
	type: "Eltwise"
}

layer {
	bottom: "res4a"
	top: "res4a"
	name: "res4a_relu"
	type: "ReLU"
}

layer {
	bottom: "res4a"
	top: "res4b1_branch2a"
	name: "res4b1_branch2a"
	type: "Convolution"
	param {
		name: "res4b1_branch2a_0"
               lr_mult: 1
               decay_mult: 1
        }
        convolution_param {
		num_output: 256
		kernel_size: 1
		pad: 0
		stride: 1
		bias_term: false
	}
}

layer {
	bottom: "res4b1_branch2a"
	top: "res4b1_branch2a"
	name: "bn4b1_branch2a"
	type: "BatchNorm"
	batch_norm_param {
		use_global_stats: true
	}
	param {
		name: "bn4b1_branch2a_0"
	      lr_mult: 0
	}
	param {
		name: "bn4b1_branch2a_1"
	      lr_mult: 0
        }
	param {
		name: "bn4b1_branch2a_2"
	      lr_mult: 0
        }
}

layer {
	bottom: "res4b1_branch2a"
	top: "res4b1_branch2a"
	name: "scale4b1_branch2a"
	type: "Scale"
	scale_param {
		bias_term: true
	}
	param {
		name: "scale4b1_branch2a_0"
	      lr_mult: 0
	}
	param {
		name: "scale4b1_branch2a_1"
	      lr_mult: 0
	}
}

layer {
	top: "res4b1_branch2a"
	bottom: "res4b1_branch2a"
	name: "res4b1_branch2a_relu"
	type: "ReLU"
}

layer {
	bottom: "res4b1_branch2a"
	top: "res4b1_branch2b"
	name: "res4b1_branch2b"
	type: "Convolution"
	param {
		name: "res4b1_branch2b_0"
               lr_mult: 1
               decay_mult: 1
        }
        convolution_param {
		num_output: 256
		kernel_size: 3
		pad: 2
		dilation: 2
		stride: 1
		bias_term: false
	}
}

layer {
	bottom: "res4b1_branch2b"
	top: "res4b1_branch2b"
	name: "bn4b1_branch2b"
	type: "BatchNorm"
	batch_norm_param {
		use_global_stats: true
	}
	param {
		name: "bn4b1_branch2b_0"
	      lr_mult: 0
	}
	param {
		name: "bn4b1_branch2b_1"
	      lr_mult: 0
        }
	param {
		name: "bn4b1_branch2b_2"
	      lr_mult: 0
        }
}

layer {
	bottom: "res4b1_branch2b"
	top: "res4b1_branch2b"
	name: "scale4b1_branch2b"
	type: "Scale"
	scale_param {
		bias_term: true
	}
	param {
		name: "scale4b1_branch2b_0"
	      lr_mult: 0
	}
	param {
		name: "scale4b1_branch2b_1"
	      lr_mult: 0
	}
}

layer {
	top: "res4b1_branch2b"
	bottom: "res4b1_branch2b"
	name: "res4b1_branch2b_relu"
	type: "ReLU"
}

layer {
	bottom: "res4b1_branch2b"
	top: "res4b1_branch2c"
	name: "res4b1_branch2c"
	type: "Convolution"
	param {
		name: "res4b1_branch2c_0"
               lr_mult: 1
               decay_mult: 1
        }
        convolution_param {
		num_output: 1024
		kernel_size: 1
		pad: 0
		stride: 1
		bias_term: false
	}
}

layer {
	bottom: "res4b1_branch2c"
	top: "res4b1_branch2c"
	name: "bn4b1_branch2c"
	type: "BatchNorm"
	batch_norm_param {
		use_global_stats: true
	}
	param {
		name: "bn4b1_branch2c_0"
	      lr_mult: 0
	}
	param {
		name: "bn4b1_branch2c_1"
	      lr_mult: 0
        }
	param {
		name: "bn4b1_branch2c_2"
	      lr_mult: 0
        }
}

layer {
	bottom: "res4b1_branch2c"
	top: "res4b1_branch2c"
	name: "scale4b1_branch2c"
	type: "Scale"
	scale_param {
		bias_term: true
	}
	param {
		name: "scale4b1_branch2c_0"
	      lr_mult: 0
	}
	param {
		name: "scale4b1_branch2c_1"
	      lr_mult: 0
	}
}

layer {
	bottom: "res4a"
	bottom: "res4b1_branch2c"
	top: "res4b1"
	name: "res4b1"
	type: "Eltwise"
}

layer {
	bottom: "res4b1"
	top: "res4b1"
	name: "res4b1_relu"
	type: "ReLU"
}

layer {
	bottom: "res4b1"
	top: "res4b2_branch2a"
	name: "res4b2_branch2a"
	type: "Convolution"
	param {
		name: "res4b2_branch2a_0"
               lr_mult: 1
               decay_mult: 1
        }
        convolution_param {
		num_output: 256
		kernel_size: 1
		pad: 0
		stride: 1
		bias_term: false
	}
}

layer {
	bottom: "res4b2_branch2a"
	top: "res4b2_branch2a"
	name: "bn4b2_branch2a"
	type: "BatchNorm"
	batch_norm_param {
		use_global_stats: true
	}
	param {
		name: "bn4b2_branch2a_0"
	      lr_mult: 0
	}
	param {
		name: "bn4b2_branch2a_1"
	      lr_mult: 0
        }
	param {
		name: "bn4b2_branch2a_2"
	      lr_mult: 0
        }
}

layer {
	bottom: "res4b2_branch2a"
	top: "res4b2_branch2a"
	name: "scale4b2_branch2a"
	type: "Scale"
	scale_param {
		bias_term: true
	}
	param {
		name: "scale4b2_branch2a_0"
	      lr_mult: 0
	}
	param {
		name: "scale4b2_branch2a_1"
	      lr_mult: 0
	}
}

layer {
	top: "res4b2_branch2a"
	bottom: "res4b2_branch2a"
	name: "res4b2_branch2a_relu"
	type: "ReLU"
}

layer {
	bottom: "res4b2_branch2a"
	top: "res4b2_branch2b"
	name: "res4b2_branch2b"
	type: "Convolution"
	param {
		name: "res4b2_branch2b_0"
               lr_mult: 1
               decay_mult: 1
        }
        convolution_param {
		num_output: 256
		kernel_size: 3
		pad: 2
		dilation: 2
		stride: 1
		bias_term: false
	}
}

layer {
	bottom: "res4b2_branch2b"
	top: "res4b2_branch2b"
	name: "bn4b2_branch2b"
	type: "BatchNorm"
	batch_norm_param {
		use_global_stats: true
	}
	param {
		name: "bn4b2_branch2b_0"
	      lr_mult: 0
	}
	param {
		name: "bn4b2_branch2b_1"
	      lr_mult: 0
        }
	param {
		name: "bn4b2_branch2b_2"
	      lr_mult: 0
        }
}

layer {
	bottom: "res4b2_branch2b"
	top: "res4b2_branch2b"
	name: "scale4b2_branch2b"
	type: "Scale"
	scale_param {
		bias_term: true
	}
	param {
		name: "scale4b2_branch2b_0"
	      lr_mult: 0
	}
	param {
		name: "scale4b2_branch2b_1"
	      lr_mult: 0
	}
}

layer {
	top: "res4b2_branch2b"
	bottom: "res4b2_branch2b"
	name: "res4b2_branch2b_relu"
	type: "ReLU"
}

layer {
	bottom: "res4b2_branch2b"
	top: "res4b2_branch2c"
	name: "res4b2_branch2c"
	type: "Convolution"
	param {
		name: "res4b2_branch2c_0"
               lr_mult: 1
               decay_mult: 1
        }
        convolution_param {
		num_output: 1024
		kernel_size: 1
		pad: 0
		stride: 1
		bias_term: false
	}
}

layer {
	bottom: "res4b2_branch2c"
	top: "res4b2_branch2c"
	name: "bn4b2_branch2c"
	type: "BatchNorm"
	batch_norm_param {
		use_global_stats: true
	}
	param {
		name: "bn4b2_branch2c_0"
	      lr_mult: 0
	}
	param {
		name: "bn4b2_branch2c_1"
	      lr_mult: 0
        }
	param {
		name: "bn4b2_branch2c_2"
	      lr_mult: 0
        }
}

layer {
	bottom: "res4b2_branch2c"
	top: "res4b2_branch2c"
	name: "scale4b2_branch2c"
	type: "Scale"
	scale_param {
		bias_term: true
	}
	param {
		name: "scale4b2_branch2c_0"
	      lr_mult: 0
	}
	param {
		name: "scale4b2_branch2c_1"
	      lr_mult: 0
	}
}

layer {
	bottom: "res4b1"
	bottom: "res4b2_branch2c"
	top: "res4b2"
	name: "res4b2"
	type: "Eltwise"
}

layer {
	bottom: "res4b2"
	top: "res4b2"
	name: "res4b2_relu"
	type: "ReLU"
}

layer {
	bottom: "res4b2"
	top: "res4b3_branch2a"
	name: "res4b3_branch2a"
	type: "Convolution"
	param {
		name: "res4b3_branch2a_0"
               lr_mult: 1
               decay_mult: 1
        }
        convolution_param {
		num_output: 256
		kernel_size: 1
		pad: 0
		stride: 1
		bias_term: false
	}
}

layer {
	bottom: "res4b3_branch2a"
	top: "res4b3_branch2a"
	name: "bn4b3_branch2a"
	type: "BatchNorm"
	batch_norm_param {
		use_global_stats: true
	}
	param {
		name: "bn4b3_branch2a_0"
	      lr_mult: 0
	}
	param {
		name: "bn4b3_branch2a_1"
	      lr_mult: 0
        }
	param {
		name: "bn4b3_branch2a_2"
	      lr_mult: 0
        }
}

layer {
	bottom: "res4b3_branch2a"
	top: "res4b3_branch2a"
	name: "scale4b3_branch2a"
	type: "Scale"
	scale_param {
		bias_term: true
	}
	param {
		name: "scale4b3_branch2a_0"
	      lr_mult: 0
	}
	param {
		name: "scale4b3_branch2a_1"
	      lr_mult: 0
	}
}

layer {
	top: "res4b3_branch2a"
	bottom: "res4b3_branch2a"
	name: "res4b3_branch2a_relu"
	type: "ReLU"
}

layer {
	bottom: "res4b3_branch2a"
	top: "res4b3_branch2b"
	name: "res4b3_branch2b"
	type: "Convolution"
	param {
		name: "res4b3_branch2b_0"
               lr_mult: 1
               decay_mult: 1
        }
        convolution_param {
		num_output: 256
		kernel_size: 3
		pad: 2
		dilation: 2
		stride: 1
		bias_term: false
	}
}

layer {
	bottom: "res4b3_branch2b"
	top: "res4b3_branch2b"
	name: "bn4b3_branch2b"
	type: "BatchNorm"
	batch_norm_param {
		use_global_stats: true
	}
	param {
		name: "bn4b3_branch2b_0"
	      lr_mult: 0
	}
	param {
		name: "bn4b3_branch2b_1"
	      lr_mult: 0
        }
	param {
		name: "bn4b3_branch2b_2"
	      lr_mult: 0
        }
}

layer {
	bottom: "res4b3_branch2b"
	top: "res4b3_branch2b"
	name: "scale4b3_branch2b"
	type: "Scale"
	scale_param {
		bias_term: true
	}
	param {
		name: "scale4b3_branch2b_0"
	      lr_mult: 0
	}
	param {
		name: "scale4b3_branch2b_1"
	      lr_mult: 0
	}
}

layer {
	top: "res4b3_branch2b"
	bottom: "res4b3_branch2b"
	name: "res4b3_branch2b_relu"
	type: "ReLU"
}

layer {
	bottom: "res4b3_branch2b"
	top: "res4b3_branch2c"
	name: "res4b3_branch2c"
	type: "Convolution"
	param {
		name: "res4b3_branch2c_0"
               lr_mult: 1
               decay_mult: 1
        }
        convolution_param {
		num_output: 1024
		kernel_size: 1
		pad: 0
		stride: 1
		bias_term: false
	}
}

layer {
	bottom: "res4b3_branch2c"
	top: "res4b3_branch2c"
	name: "bn4b3_branch2c"
	type: "BatchNorm"
	batch_norm_param {
		use_global_stats: true
	}
	param {
		name: "bn4b3_branch2c_0"
	      lr_mult: 0
	}
	param {
		name: "bn4b3_branch2c_1"
	      lr_mult: 0
        }
	param {
		name: "bn4b3_branch2c_2"
	      lr_mult: 0
        }
}

layer {
	bottom: "res4b3_branch2c"
	top: "res4b3_branch2c"
	name: "scale4b3_branch2c"
	type: "Scale"
	scale_param {
		bias_term: true
	}
	param {
		name: "scale4b3_branch2c_0"
	      lr_mult: 0
	}
	param {
		name: "scale4b3_branch2c_1"
	      lr_mult: 0
	}
}

layer {
	bottom: "res4b2"
	bottom: "res4b3_branch2c"
	top: "res4b3"
	name: "res4b3"
	type: "Eltwise"
}

layer {
	bottom: "res4b3"
	top: "res4b3"
	name: "res4b3_relu"
	type: "ReLU"
}

layer {
	bottom: "res4b3"
	top: "res4b4_branch2a"
	name: "res4b4_branch2a"
	type: "Convolution"
	param {
		name: "res4b4_branch2a_0"
               lr_mult: 1
               decay_mult: 1
        }
        convolution_param {
		num_output: 256
		kernel_size: 1
		pad: 0
		stride: 1
		bias_term: false
	}
}

layer {
	bottom: "res4b4_branch2a"
	top: "res4b4_branch2a"
	name: "bn4b4_branch2a"
	type: "BatchNorm"
	batch_norm_param {
		use_global_stats: true
	}
	param {
		name: "bn4b4_branch2a_0"
	      lr_mult: 0
	}
	param {
		name: "bn4b4_branch2a_1"
	      lr_mult: 0
        }
	param {
		name: "bn4b4_branch2a_2"
	      lr_mult: 0
        }
}

layer {
	bottom: "res4b4_branch2a"
	top: "res4b4_branch2a"
	name: "scale4b4_branch2a"
	type: "Scale"
	scale_param {
		bias_term: true
	}
	param {
		name: "scale4b4_branch2a_0"
	      lr_mult: 0
	}
	param {
		name: "scale4b4_branch2a_1"
	      lr_mult: 0
	}
}

layer {
	top: "res4b4_branch2a"
	bottom: "res4b4_branch2a"
	name: "res4b4_branch2a_relu"
	type: "ReLU"
}

layer {
	bottom: "res4b4_branch2a"
	top: "res4b4_branch2b"
	name: "res4b4_branch2b"
	type: "Convolution"
	param {
		name: "res4b4_branch2b_0"
               lr_mult: 1
               decay_mult: 1
        }
        convolution_param {
		num_output: 256
		kernel_size: 3
		pad: 2
		dilation: 2
		stride: 1
		bias_term: false
	}
}

layer {
	bottom: "res4b4_branch2b"
	top: "res4b4_branch2b"
	name: "bn4b4_branch2b"
	type: "BatchNorm"
	batch_norm_param {
		use_global_stats: true
	}
	param {
		name: "bn4b4_branch2b_0"
	      lr_mult: 0
	}
	param {
		name: "bn4b4_branch2b_1"
	      lr_mult: 0
        }
	param {
		name: "bn4b4_branch2b_2"
	      lr_mult: 0
        }
}

layer {
	bottom: "res4b4_branch2b"
	top: "res4b4_branch2b"
	name: "scale4b4_branch2b"
	type: "Scale"
	scale_param {
		bias_term: true
	}
	param {
		name: "scale4b4_branch2b_0"
	      lr_mult: 0
	}
	param {
		name: "scale4b4_branch2b_1"
	      lr_mult: 0
	}
}

layer {
	top: "res4b4_branch2b"
	bottom: "res4b4_branch2b"
	name: "res4b4_branch2b_relu"
	type: "ReLU"
}

layer {
	bottom: "res4b4_branch2b"
	top: "res4b4_branch2c"
	name: "res4b4_branch2c"
	type: "Convolution"
	param {
		name: "res4b4_branch2c_0"
               lr_mult: 1
               decay_mult: 1
        }
        convolution_param {
		num_output: 1024
		kernel_size: 1
		pad: 0
		stride: 1
		bias_term: false
	}
}

layer {
	bottom: "res4b4_branch2c"
	top: "res4b4_branch2c"
	name: "bn4b4_branch2c"
	type: "BatchNorm"
	batch_norm_param {
		use_global_stats: true
	}
	param {
		name: "bn4b4_branch2c_0"
	      lr_mult: 0
	}
	param {
		name: "bn4b4_branch2c_1"
	      lr_mult: 0
        }
	param {
		name: "bn4b4_branch2c_2"
	      lr_mult: 0
        }
}

layer {
	bottom: "res4b4_branch2c"
	top: "res4b4_branch2c"
	name: "scale4b4_branch2c"
	type: "Scale"
	scale_param {
		bias_term: true
	}
	param {
		name: "scale4b4_branch2c_0"
	      lr_mult: 0
	}
	param {
		name: "scale4b4_branch2c_1"
	      lr_mult: 0
	}
}

layer {
	bottom: "res4b3"
	bottom: "res4b4_branch2c"
	top: "res4b4"
	name: "res4b4"
	type: "Eltwise"
}

layer {
	bottom: "res4b4"
	top: "res4b4"
	name: "res4b4_relu"
	type: "ReLU"
}

layer {
	bottom: "res4b4"
	top: "res4b5_branch2a"
	name: "res4b5_branch2a"
	type: "Convolution"
	param {
		name: "res4b5_branch2a_0"
               lr_mult: 1
               decay_mult: 1
        }
        convolution_param {
		num_output: 256
		kernel_size: 1
		pad: 0
		stride: 1
		bias_term: false
	}
}

layer {
	bottom: "res4b5_branch2a"
	top: "res4b5_branch2a"
	name: "bn4b5_branch2a"
	type: "BatchNorm"
	batch_norm_param {
		use_global_stats: true
	}
	param {
		name: "bn4b5_branch2a_0"
	      lr_mult: 0
	}
	param {
		name: "bn4b5_branch2a_1"
	      lr_mult: 0
        }
	param {
		name: "bn4b5_branch2a_2"
	      lr_mult: 0
        }
}

layer {
	bottom: "res4b5_branch2a"
	top: "res4b5_branch2a"
	name: "scale4b5_branch2a"
	type: "Scale"
	scale_param {
		bias_term: true
	}
	param {
		name: "scale4b5_branch2a_0"
	      lr_mult: 0
	}
	param {
		name: "scale4b5_branch2a_1"
	      lr_mult: 0
	}
}

layer {
	top: "res4b5_branch2a"
	bottom: "res4b5_branch2a"
	name: "res4b5_branch2a_relu"
	type: "ReLU"
}

layer {
	bottom: "res4b5_branch2a"
	top: "res4b5_branch2b"
	name: "res4b5_branch2b"
	type: "Convolution"
	param {
		name: "res4b5_branch2b_0"
               lr_mult: 1
               decay_mult: 1
        }
        convolution_param {
		num_output: 256
		kernel_size: 3
		pad: 2
		dilation: 2
		stride: 1
		bias_term: false
	}
}

layer {
	bottom: "res4b5_branch2b"
	top: "res4b5_branch2b"
	name: "bn4b5_branch2b"
	type: "BatchNorm"
	batch_norm_param {
		use_global_stats: true
	}
	param {
		name: "bn4b5_branch2b_0"
	      lr_mult: 0
	}
	param {
		name: "bn4b5_branch2b_1"
	      lr_mult: 0
        }
	param {
		name: "bn4b5_branch2b_2"
	      lr_mult: 0
        }
}

layer {
	bottom: "res4b5_branch2b"
	top: "res4b5_branch2b"
	name: "scale4b5_branch2b"
	type: "Scale"
	scale_param {
		bias_term: true
	}
	param {
		name: "scale4b5_branch2b_0"
	      lr_mult: 0
	}
	param {
		name: "scale4b5_branch2b_1"
	      lr_mult: 0
	}
}

layer {
	top: "res4b5_branch2b"
	bottom: "res4b5_branch2b"
	name: "res4b5_branch2b_relu"
	type: "ReLU"
}

layer {
	bottom: "res4b5_branch2b"
	top: "res4b5_branch2c"
	name: "res4b5_branch2c"
	type: "Convolution"
	param {
		name: "res4b5_branch2c_0"
               lr_mult: 1
               decay_mult: 1
        }
        convolution_param {
		num_output: 1024
		kernel_size: 1
		pad: 0
		stride: 1
		bias_term: false
	}
}

layer {
	bottom: "res4b5_branch2c"
	top: "res4b5_branch2c"
	name: "bn4b5_branch2c"
	type: "BatchNorm"
	batch_norm_param {
		use_global_stats: true
	}
	param {
		name: "bn4b5_branch2c_0"
	      lr_mult: 0
	}
	param {
		name: "bn4b5_branch2c_1"
	      lr_mult: 0
        }
	param {
		name: "bn4b5_branch2c_2"
	      lr_mult: 0
        }
}

layer {
	bottom: "res4b5_branch2c"
	top: "res4b5_branch2c"
	name: "scale4b5_branch2c"
	type: "Scale"
	scale_param {
		bias_term: true
	}
	param {
		name: "scale4b5_branch2c_0"
	      lr_mult: 0
	}
	param {
		name: "scale4b5_branch2c_1"
	      lr_mult: 0
	}
}

layer {
	bottom: "res4b4"
	bottom: "res4b5_branch2c"
	top: "res4b5"
	name: "res4b5"
	type: "Eltwise"
}

layer {
	bottom: "res4b5"
	top: "res4b5"
	name: "res4b5_relu"
	type: "ReLU"
}

layer {
	bottom: "res4b5"
	top: "res4b6_branch2a"
	name: "res4b6_branch2a"
	type: "Convolution"
	param {
		name: "res4b6_branch2a_0"
               lr_mult: 1
               decay_mult: 1
        }
        convolution_param {
		num_output: 256
		kernel_size: 1
		pad: 0
		stride: 1
		bias_term: false
	}
}

layer {
	bottom: "res4b6_branch2a"
	top: "res4b6_branch2a"
	name: "bn4b6_branch2a"
	type: "BatchNorm"
	batch_norm_param {
		use_global_stats: true
	}
	param {
		name: "bn4b6_branch2a_0"
	      lr_mult: 0
	}
	param {
		name: "bn4b6_branch2a_1"
	      lr_mult: 0
        }
	param {
		name: "bn4b6_branch2a_2"
	      lr_mult: 0
        }
}

layer {
	bottom: "res4b6_branch2a"
	top: "res4b6_branch2a"
	name: "scale4b6_branch2a"
	type: "Scale"
	scale_param {
		bias_term: true
	}
	param {
		name: "scale4b6_branch2a_0"
	      lr_mult: 0
	}
	param {
		name: "scale4b6_branch2a_1"
	      lr_mult: 0
	}
}

layer {
	top: "res4b6_branch2a"
	bottom: "res4b6_branch2a"
	name: "res4b6_branch2a_relu"
	type: "ReLU"
}

layer {
	bottom: "res4b6_branch2a"
	top: "res4b6_branch2b"
	name: "res4b6_branch2b"
	type: "Convolution"
	param {
		name: "res4b6_branch2b_0"
               lr_mult: 1
               decay_mult: 1
        }
        convolution_param {
		num_output: 256
		kernel_size: 3
		pad: 2
		dilation: 2
		stride: 1
		bias_term: false
	}
}

layer {
	bottom: "res4b6_branch2b"
	top: "res4b6_branch2b"
	name: "bn4b6_branch2b"
	type: "BatchNorm"
	batch_norm_param {
		use_global_stats: true
	}
	param {
		name: "bn4b6_branch2b_0"
	      lr_mult: 0
	}
	param {
		name: "bn4b6_branch2b_1"
	      lr_mult: 0
        }
	param {
		name: "bn4b6_branch2b_2"
	      lr_mult: 0
        }
}

layer {
	bottom: "res4b6_branch2b"
	top: "res4b6_branch2b"
	name: "scale4b6_branch2b"
	type: "Scale"
	scale_param {
		bias_term: true
	}
	param {
		name: "scale4b6_branch2b_0"
	      lr_mult: 0
	}
	param {
		name: "scale4b6_branch2b_1"
	      lr_mult: 0
	}
}

layer {
	top: "res4b6_branch2b"
	bottom: "res4b6_branch2b"
	name: "res4b6_branch2b_relu"
	type: "ReLU"
}

layer {
	bottom: "res4b6_branch2b"
	top: "res4b6_branch2c"
	name: "res4b6_branch2c"
	type: "Convolution"
	param {
		name: "res4b6_branch2c_0"
               lr_mult: 1
               decay_mult: 1
        }
        convolution_param {
		num_output: 1024
		kernel_size: 1
		pad: 0
		stride: 1
		bias_term: false
	}
}

layer {
	bottom: "res4b6_branch2c"
	top: "res4b6_branch2c"
	name: "bn4b6_branch2c"
	type: "BatchNorm"
	batch_norm_param {
		use_global_stats: true
	}
	param {
		name: "bn4b6_branch2c_0"
	      lr_mult: 0
	}
	param {
		name: "bn4b6_branch2c_1"
	      lr_mult: 0
        }
	param {
		name: "bn4b6_branch2c_2"
	      lr_mult: 0
        }
}

layer {
	bottom: "res4b6_branch2c"
	top: "res4b6_branch2c"
	name: "scale4b6_branch2c"
	type: "Scale"
	scale_param {
		bias_term: true
	}
	param {
		name: "scale4b6_branch2c_0"
	      lr_mult: 0
	}
	param {
		name: "scale4b6_branch2c_1"
	      lr_mult: 0
	}
}

layer {
	bottom: "res4b5"
	bottom: "res4b6_branch2c"
	top: "res4b6"
	name: "res4b6"
	type: "Eltwise"
}

layer {
	bottom: "res4b6"
	top: "res4b6"
	name: "res4b6_relu"
	type: "ReLU"
}

layer {
	bottom: "res4b6"
	top: "res4b7_branch2a"
	name: "res4b7_branch2a"
	type: "Convolution"
	param {
		name: "res4b7_branch2a_0"
               lr_mult: 1
               decay_mult: 1
        }
        convolution_param {
		num_output: 256
		kernel_size: 1
		pad: 0
		stride: 1
		bias_term: false
	}
}

layer {
	bottom: "res4b7_branch2a"
	top: "res4b7_branch2a"
	name: "bn4b7_branch2a"
	type: "BatchNorm"
	batch_norm_param {
		use_global_stats: true
	}
	param {
		name: "bn4b7_branch2a_0"
	      lr_mult: 0
	}
	param {
		name: "bn4b7_branch2a_1"
	      lr_mult: 0
        }
	param {
		name: "bn4b7_branch2a_2"
	      lr_mult: 0
        }
}

layer {
	bottom: "res4b7_branch2a"
	top: "res4b7_branch2a"
	name: "scale4b7_branch2a"
	type: "Scale"
	scale_param {
		bias_term: true
	}
	param {
		name: "scale4b7_branch2a_0"
	      lr_mult: 0
	}
	param {
		name: "scale4b7_branch2a_1"
	      lr_mult: 0
	}
}

layer {
	top: "res4b7_branch2a"
	bottom: "res4b7_branch2a"
	name: "res4b7_branch2a_relu"
	type: "ReLU"
}

layer {
	bottom: "res4b7_branch2a"
	top: "res4b7_branch2b"
	name: "res4b7_branch2b"
	type: "Convolution"
	param {
		name: "res4b7_branch2b_0"
               lr_mult: 1
               decay_mult: 1
        }
        convolution_param {
		num_output: 256
		kernel_size: 3
		pad: 2
		dilation: 2
		stride: 1
		bias_term: false
	}
}

layer {
	bottom: "res4b7_branch2b"
	top: "res4b7_branch2b"
	name: "bn4b7_branch2b"
	type: "BatchNorm"
	batch_norm_param {
		use_global_stats: true
	}
	param {
		name: "bn4b7_branch2b_0"
	      lr_mult: 0
	}
	param {
		name: "bn4b7_branch2b_1"
	      lr_mult: 0
        }
	param {
		name: "bn4b7_branch2b_2"
	      lr_mult: 0
        }
}

layer {
	bottom: "res4b7_branch2b"
	top: "res4b7_branch2b"
	name: "scale4b7_branch2b"
	type: "Scale"
	scale_param {
		bias_term: true
	}
	param {
		name: "scale4b7_branch2b_0"
	      lr_mult: 0
	}
	param {
		name: "scale4b7_branch2b_1"
	      lr_mult: 0
	}
}

layer {
	top: "res4b7_branch2b"
	bottom: "res4b7_branch2b"
	name: "res4b7_branch2b_relu"
	type: "ReLU"
}

layer {
	bottom: "res4b7_branch2b"
	top: "res4b7_branch2c"
	name: "res4b7_branch2c"
	type: "Convolution"
	param {
		name: "res4b7_branch2c_0"
               lr_mult: 1
               decay_mult: 1
        }
        convolution_param {
		num_output: 1024
		kernel_size: 1
		pad: 0
		stride: 1
		bias_term: false
	}
}

layer {
	bottom: "res4b7_branch2c"
	top: "res4b7_branch2c"
	name: "bn4b7_branch2c"
	type: "BatchNorm"
	batch_norm_param {
		use_global_stats: true
	}
	param {
		name: "bn4b7_branch2c_0"
	      lr_mult: 0
	}
	param {
		name: "bn4b7_branch2c_1"
	      lr_mult: 0
        }
	param {
		name: "bn4b7_branch2c_2"
	      lr_mult: 0
        }
}

layer {
	bottom: "res4b7_branch2c"
	top: "res4b7_branch2c"
	name: "scale4b7_branch2c"
	type: "Scale"
	scale_param {
		bias_term: true
	}
	param {
		name: "scale4b7_branch2c_0"
	      lr_mult: 0
	}
	param {
		name: "scale4b7_branch2c_1"
	      lr_mult: 0
	}
}

layer {
	bottom: "res4b6"
	bottom: "res4b7_branch2c"
	top: "res4b7"
	name: "res4b7"
	type: "Eltwise"
}

layer {
	bottom: "res4b7"
	top: "res4b7"
	name: "res4b7_relu"
	type: "ReLU"
}

layer {
	bottom: "res4b7"
	top: "res4b8_branch2a"
	name: "res4b8_branch2a"
	type: "Convolution"
	param {
		name: "res4b8_branch2a_0"
               lr_mult: 1
               decay_mult: 1
        }
        convolution_param {
		num_output: 256
		kernel_size: 1
		pad: 0
		stride: 1
		bias_term: false
	}
}

layer {
	bottom: "res4b8_branch2a"
	top: "res4b8_branch2a"
	name: "bn4b8_branch2a"
	type: "BatchNorm"
	batch_norm_param {
		use_global_stats: true
	}
	param {
		name: "bn4b8_branch2a_0"
	      lr_mult: 0
	}
	param {
		name: "bn4b8_branch2a_1"
	      lr_mult: 0
        }
	param {
		name: "bn4b8_branch2a_2"
	      lr_mult: 0
        }
}

layer {
	bottom: "res4b8_branch2a"
	top: "res4b8_branch2a"
	name: "scale4b8_branch2a"
	type: "Scale"
	scale_param {
		bias_term: true
	}
	param {
		name: "scale4b8_branch2a_0"
	      lr_mult: 0
	}
	param {
		name: "scale4b8_branch2a_1"
	      lr_mult: 0
	}
}

layer {
	top: "res4b8_branch2a"
	bottom: "res4b8_branch2a"
	name: "res4b8_branch2a_relu"
	type: "ReLU"
}

layer {
	bottom: "res4b8_branch2a"
	top: "res4b8_branch2b"
	name: "res4b8_branch2b"
	type: "Convolution"
	param {
		name: "res4b8_branch2b_0"
               lr_mult: 1
               decay_mult: 1
        }
        convolution_param {
		num_output: 256
		kernel_size: 3
		pad: 2
		dilation: 2
		stride: 1
		bias_term: false
	}
}

layer {
	bottom: "res4b8_branch2b"
	top: "res4b8_branch2b"
	name: "bn4b8_branch2b"
	type: "BatchNorm"
	batch_norm_param {
		use_global_stats: true
	}
	param {
		name: "bn4b8_branch2b_0"
	      lr_mult: 0
	}
	param {
		name: "bn4b8_branch2b_1"
	      lr_mult: 0
        }
	param {
		name: "bn4b8_branch2b_2"
	      lr_mult: 0
        }
}

layer {
	bottom: "res4b8_branch2b"
	top: "res4b8_branch2b"
	name: "scale4b8_branch2b"
	type: "Scale"
	scale_param {
		bias_term: true
	}
	param {
		name: "scale4b8_branch2b_0"
	      lr_mult: 0
	}
	param {
		name: "scale4b8_branch2b_1"
	      lr_mult: 0
	}
}

layer {
	top: "res4b8_branch2b"
	bottom: "res4b8_branch2b"
	name: "res4b8_branch2b_relu"
	type: "ReLU"
}

layer {
	bottom: "res4b8_branch2b"
	top: "res4b8_branch2c"
	name: "res4b8_branch2c"
	type: "Convolution"
	param {
		name: "res4b8_branch2c_0"
               lr_mult: 1
               decay_mult: 1
        }
        convolution_param {
		num_output: 1024
		kernel_size: 1
		pad: 0
		stride: 1
		bias_term: false
	}
}

layer {
	bottom: "res4b8_branch2c"
	top: "res4b8_branch2c"
	name: "bn4b8_branch2c"
	type: "BatchNorm"
	batch_norm_param {
		use_global_stats: true
	}
	param {
		name: "bn4b8_branch2c_0"
	      lr_mult: 0
	}
	param {
		name: "bn4b8_branch2c_1"
	      lr_mult: 0
        }
	param {
		name: "bn4b8_branch2c_2"
	      lr_mult: 0
        }
}

layer {
	bottom: "res4b8_branch2c"
	top: "res4b8_branch2c"
	name: "scale4b8_branch2c"
	type: "Scale"
	scale_param {
		bias_term: true
	}
	param {
		name: "scale4b8_branch2c_0"
	      lr_mult: 0
	}
	param {
		name: "scale4b8_branch2c_1"
	      lr_mult: 0
	}
}

layer {
	bottom: "res4b7"
	bottom: "res4b8_branch2c"
	top: "res4b8"
	name: "res4b8"
	type: "Eltwise"
}

layer {
	bottom: "res4b8"
	top: "res4b8"
	name: "res4b8_relu"
	type: "ReLU"
}

layer {
	bottom: "res4b8"
	top: "res4b9_branch2a"
	name: "res4b9_branch2a"
	type: "Convolution"
	param {
		name: "res4b9_branch2a_0"
               lr_mult: 1
               decay_mult: 1
        }
        convolution_param {
		num_output: 256
		kernel_size: 1
		pad: 0
		stride: 1
		bias_term: false
	}
}

layer {
	bottom: "res4b9_branch2a"
	top: "res4b9_branch2a"
	name: "bn4b9_branch2a"
	type: "BatchNorm"
	batch_norm_param {
		use_global_stats: true
	}
	param {
		name: "bn4b9_branch2a_0"
	      lr_mult: 0
	}
	param {
		name: "bn4b9_branch2a_1"
	      lr_mult: 0
        }
	param {
		name: "bn4b9_branch2a_2"
	      lr_mult: 0
        }
}

layer {
	bottom: "res4b9_branch2a"
	top: "res4b9_branch2a"
	name: "scale4b9_branch2a"
	type: "Scale"
	scale_param {
		bias_term: true
	}
	param {
		name: "scale4b9_branch2a_0"
	      lr_mult: 0
	}
	param {
		name: "scale4b9_branch2a_1"
	      lr_mult: 0
	}
}

layer {
	top: "res4b9_branch2a"
	bottom: "res4b9_branch2a"
	name: "res4b9_branch2a_relu"
	type: "ReLU"
}

layer {
	bottom: "res4b9_branch2a"
	top: "res4b9_branch2b"
	name: "res4b9_branch2b"
	type: "Convolution"
	param {
		name: "res4b9_branch2b_0"
               lr_mult: 1
               decay_mult: 1
        }
        convolution_param {
		num_output: 256
		kernel_size: 3
		pad: 2
		dilation: 2
		stride: 1
		bias_term: false
	}
}

layer {
	bottom: "res4b9_branch2b"
	top: "res4b9_branch2b"
	name: "bn4b9_branch2b"
	type: "BatchNorm"
	batch_norm_param {
		use_global_stats: true
	}
	param {
		name: "bn4b9_branch2b_0"
	      lr_mult: 0
	}
	param {
		name: "bn4b9_branch2b_1"
	      lr_mult: 0
        }
	param {
		name: "bn4b9_branch2b_2"
	      lr_mult: 0
        }
}

layer {
	bottom: "res4b9_branch2b"
	top: "res4b9_branch2b"
	name: "scale4b9_branch2b"
	type: "Scale"
	scale_param {
		bias_term: true
	}
	param {
		name: "scale4b9_branch2b_0"
	      lr_mult: 0
	}
	param {
		name: "scale4b9_branch2b_1"
	      lr_mult: 0
	}
}

layer {
	top: "res4b9_branch2b"
	bottom: "res4b9_branch2b"
	name: "res4b9_branch2b_relu"
	type: "ReLU"
}

layer {
	bottom: "res4b9_branch2b"
	top: "res4b9_branch2c"
	name: "res4b9_branch2c"
	type: "Convolution"
	param {
		name: "res4b9_branch2c_0"
               lr_mult: 1
               decay_mult: 1
        }
        convolution_param {
		num_output: 1024
		kernel_size: 1
		pad: 0
		stride: 1
		bias_term: false
	}
}

layer {
	bottom: "res4b9_branch2c"
	top: "res4b9_branch2c"
	name: "bn4b9_branch2c"
	type: "BatchNorm"
	batch_norm_param {
		use_global_stats: true
	}
	param {
		name: "bn4b9_branch2c_0"
	      lr_mult: 0
	}
	param {
		name: "bn4b9_branch2c_1"
	      lr_mult: 0
        }
	param {
		name: "bn4b9_branch2c_2"
	      lr_mult: 0
        }
}

layer {
	bottom: "res4b9_branch2c"
	top: "res4b9_branch2c"
	name: "scale4b9_branch2c"
	type: "Scale"
	scale_param {
		bias_term: true
	}
	param {
		name: "scale4b9_branch2c_0"
	      lr_mult: 0
	}
	param {
		name: "scale4b9_branch2c_1"
	      lr_mult: 0
	}
}

layer {
	bottom: "res4b8"
	bottom: "res4b9_branch2c"
	top: "res4b9"
	name: "res4b9"
	type: "Eltwise"
}

layer {
	bottom: "res4b9"
	top: "res4b9"
	name: "res4b9_relu"
	type: "ReLU"
}

layer {
	bottom: "res4b9"
	top: "res4b10_branch2a"
	name: "res4b10_branch2a"
	type: "Convolution"
	param {
		name: "res4b10_branch2a_0"
               lr_mult: 1
               decay_mult: 1
        }
        convolution_param {
		num_output: 256
		kernel_size: 1
		pad: 0
		stride: 1
		bias_term: false
	}
}

layer {
	bottom: "res4b10_branch2a"
	top: "res4b10_branch2a"
	name: "bn4b10_branch2a"
	type: "BatchNorm"
	batch_norm_param {
		use_global_stats: true
	}
	param {
		name: "bn4b10_branch2a_0"
	      lr_mult: 0
	}
	param {
		name: "bn4b10_branch2a_1"
	      lr_mult: 0
        }
	param {
		name: "bn4b10_branch2a_2"
	      lr_mult: 0
        }
}

layer {
	bottom: "res4b10_branch2a"
	top: "res4b10_branch2a"
	name: "scale4b10_branch2a"
	type: "Scale"
	scale_param {
		bias_term: true
	}
	param {
		name: "scale4b10_branch2a_0"
	      lr_mult: 0
	}
	param {
		name: "scale4b10_branch2a_1"
	      lr_mult: 0
	}
}

layer {
	top: "res4b10_branch2a"
	bottom: "res4b10_branch2a"
	name: "res4b10_branch2a_relu"
	type: "ReLU"
}

layer {
	bottom: "res4b10_branch2a"
	top: "res4b10_branch2b"
	name: "res4b10_branch2b"
	type: "Convolution"
	param {
		name: "res4b10_branch2b_0"
               lr_mult: 1
               decay_mult: 1
        }
        convolution_param {
		num_output: 256
		kernel_size: 3
		pad: 2
		dilation: 2
		stride: 1
		bias_term: false
	}
}

layer {
	bottom: "res4b10_branch2b"
	top: "res4b10_branch2b"
	name: "bn4b10_branch2b"
	type: "BatchNorm"
	batch_norm_param {
		use_global_stats: true
	}
	param {
		name: "bn4b10_branch2b_0"
	      lr_mult: 0
	}
	param {
		name: "bn4b10_branch2b_1"
	      lr_mult: 0
        }
	param {
		name: "bn4b10_branch2b_2"
	      lr_mult: 0
        }
}

layer {
	bottom: "res4b10_branch2b"
	top: "res4b10_branch2b"
	name: "scale4b10_branch2b"
	type: "Scale"
	scale_param {
		bias_term: true
	}
	param {
		name: "scale4b10_branch2b_0"
	      lr_mult: 0
	}
	param {
		name: "scale4b10_branch2b_1"
	      lr_mult: 0
	}
}

layer {
	top: "res4b10_branch2b"
	bottom: "res4b10_branch2b"
	name: "res4b10_branch2b_relu"
	type: "ReLU"
}

layer {
	bottom: "res4b10_branch2b"
	top: "res4b10_branch2c"
	name: "res4b10_branch2c"
	type: "Convolution"
	param {
		name: "res4b10_branch2c_0"
               lr_mult: 1
               decay_mult: 1
        }
        convolution_param {
		num_output: 1024
		kernel_size: 1
		pad: 0
		stride: 1
		bias_term: false
	}
}

layer {
	bottom: "res4b10_branch2c"
	top: "res4b10_branch2c"
	name: "bn4b10_branch2c"
	type: "BatchNorm"
	batch_norm_param {
		use_global_stats: true
	}
	param {
		name: "bn4b10_branch2c_0"
	      lr_mult: 0
	}
	param {
		name: "bn4b10_branch2c_1"
	      lr_mult: 0
        }
	param {
		name: "bn4b10_branch2c_2"
	      lr_mult: 0
        }
}

layer {
	bottom: "res4b10_branch2c"
	top: "res4b10_branch2c"
	name: "scale4b10_branch2c"
	type: "Scale"
	scale_param {
		bias_term: true
	}
	param {
		name: "scale4b10_branch2c_0"
	      lr_mult: 0
	}
	param {
		name: "scale4b10_branch2c_1"
	      lr_mult: 0
	}
}

layer {
	bottom: "res4b9"
	bottom: "res4b10_branch2c"
	top: "res4b10"
	name: "res4b10"
	type: "Eltwise"
}

layer {
	bottom: "res4b10"
	top: "res4b10"
	name: "res4b10_relu"
	type: "ReLU"
}

layer {
	bottom: "res4b10"
	top: "res4b11_branch2a"
	name: "res4b11_branch2a"
	type: "Convolution"
	param {
		name: "res4b11_branch2a_0"
               lr_mult: 1
               decay_mult: 1
        }
        convolution_param {
		num_output: 256
		kernel_size: 1
		pad: 0
		stride: 1
		bias_term: false
	}
}

layer {
	bottom: "res4b11_branch2a"
	top: "res4b11_branch2a"
	name: "bn4b11_branch2a"
	type: "BatchNorm"
	batch_norm_param {
		use_global_stats: true
	}
	param {
		name: "bn4b11_branch2a_0"
	      lr_mult: 0
	}
	param {
		name: "bn4b11_branch2a_1"
	      lr_mult: 0
        }
	param {
		name: "bn4b11_branch2a_2"
	      lr_mult: 0
        }
}

layer {
	bottom: "res4b11_branch2a"
	top: "res4b11_branch2a"
	name: "scale4b11_branch2a"
	type: "Scale"
	scale_param {
		bias_term: true
	}
	param {
		name: "scale4b11_branch2a_0"
	      lr_mult: 0
	}
	param {
		name: "scale4b11_branch2a_1"
	      lr_mult: 0
	}
}

layer {
	top: "res4b11_branch2a"
	bottom: "res4b11_branch2a"
	name: "res4b11_branch2a_relu"
	type: "ReLU"
}

layer {
	bottom: "res4b11_branch2a"
	top: "res4b11_branch2b"
	name: "res4b11_branch2b"
	type: "Convolution"
	param {
		name: "res4b11_branch2b_0"
               lr_mult: 1
               decay_mult: 1
        }
        convolution_param {
		num_output: 256
		kernel_size: 3
		pad: 2
		dilation: 2
		stride: 1
		bias_term: false
	}
}

layer {
	bottom: "res4b11_branch2b"
	top: "res4b11_branch2b"
	name: "bn4b11_branch2b"
	type: "BatchNorm"
	batch_norm_param {
		use_global_stats: true
	}
	param {
		name: "bn4b11_branch2b_0"
	      lr_mult: 0
	}
	param {
		name: "bn4b11_branch2b_1"
	      lr_mult: 0
        }
	param {
		name: "bn4b11_branch2b_2"
	      lr_mult: 0
        }
}

layer {
	bottom: "res4b11_branch2b"
	top: "res4b11_branch2b"
	name: "scale4b11_branch2b"
	type: "Scale"
	scale_param {
		bias_term: true
	}
	param {
		name: "scale4b11_branch2b_0"
	      lr_mult: 0
	}
	param {
		name: "scale4b11_branch2b_1"
	      lr_mult: 0
	}
}

layer {
	top: "res4b11_branch2b"
	bottom: "res4b11_branch2b"
	name: "res4b11_branch2b_relu"
	type: "ReLU"
}

layer {
	bottom: "res4b11_branch2b"
	top: "res4b11_branch2c"
	name: "res4b11_branch2c"
	type: "Convolution"
	param {
		name: "res4b11_branch2c_0"
               lr_mult: 1
               decay_mult: 1
        }
        convolution_param {
		num_output: 1024
		kernel_size: 1
		pad: 0
		stride: 1
		bias_term: false
	}
}

layer {
	bottom: "res4b11_branch2c"
	top: "res4b11_branch2c"
	name: "bn4b11_branch2c"
	type: "BatchNorm"
	batch_norm_param {
		use_global_stats: true
	}
	param {
		name: "bn4b11_branch2c_0"
	      lr_mult: 0
	}
	param {
		name: "bn4b11_branch2c_1"
	      lr_mult: 0
        }
	param {
		name: "bn4b11_branch2c_2"
	      lr_mult: 0
        }
}

layer {
	bottom: "res4b11_branch2c"
	top: "res4b11_branch2c"
	name: "scale4b11_branch2c"
	type: "Scale"
	scale_param {
		bias_term: true
	}
	param {
		name: "scale4b11_branch2c_0"
	      lr_mult: 0
	}
	param {
		name: "scale4b11_branch2c_1"
	      lr_mult: 0
	}
}

layer {
	bottom: "res4b10"
	bottom: "res4b11_branch2c"
	top: "res4b11"
	name: "res4b11"
	type: "Eltwise"
}

layer {
	bottom: "res4b11"
	top: "res4b11"
	name: "res4b11_relu"
	type: "ReLU"
}

layer {
	bottom: "res4b11"
	top: "res4b12_branch2a"
	name: "res4b12_branch2a"
	type: "Convolution"
	param {
		name: "res4b12_branch2a_0"
               lr_mult: 1
               decay_mult: 1
        }
        convolution_param {
		num_output: 256
		kernel_size: 1
		pad: 0
		stride: 1
		bias_term: false
	}
}

layer {
	bottom: "res4b12_branch2a"
	top: "res4b12_branch2a"
	name: "bn4b12_branch2a"
	type: "BatchNorm"
	batch_norm_param {
		use_global_stats: true
	}
	param {
		name: "bn4b12_branch2a_0"
	      lr_mult: 0
	}
	param {
		name: "bn4b12_branch2a_1"
	      lr_mult: 0
        }
	param {
		name: "bn4b12_branch2a_2"
	      lr_mult: 0
        }
}

layer {
	bottom: "res4b12_branch2a"
	top: "res4b12_branch2a"
	name: "scale4b12_branch2a"
	type: "Scale"
	scale_param {
		bias_term: true
	}
	param {
		name: "scale4b12_branch2a_0"
	      lr_mult: 0
	}
	param {
		name: "scale4b12_branch2a_1"
	      lr_mult: 0
	}
}

layer {
	top: "res4b12_branch2a"
	bottom: "res4b12_branch2a"
	name: "res4b12_branch2a_relu"
	type: "ReLU"
}

layer {
	bottom: "res4b12_branch2a"
	top: "res4b12_branch2b"
	name: "res4b12_branch2b"
	type: "Convolution"
	param {
		name: "res4b12_branch2b_0"
               lr_mult: 1
               decay_mult: 1
        }
        convolution_param {
		num_output: 256
		kernel_size: 3
		pad: 2
		dilation: 2
		stride: 1
		bias_term: false
	}
}

layer {
	bottom: "res4b12_branch2b"
	top: "res4b12_branch2b"
	name: "bn4b12_branch2b"
	type: "BatchNorm"
	batch_norm_param {
		use_global_stats: true
	}
	param {
		name: "bn4b12_branch2b_0"
	      lr_mult: 0
	}
	param {
		name: "bn4b12_branch2b_1"
	      lr_mult: 0
        }
	param {
		name: "bn4b12_branch2b_2"
	      lr_mult: 0
        }
}

layer {
	bottom: "res4b12_branch2b"
	top: "res4b12_branch2b"
	name: "scale4b12_branch2b"
	type: "Scale"
	scale_param {
		bias_term: true
	}
	param {
		name: "scale4b12_branch2b_0"
	      lr_mult: 0
	}
	param {
		name: "scale4b12_branch2b_1"
	      lr_mult: 0
	}
}

layer {
	top: "res4b12_branch2b"
	bottom: "res4b12_branch2b"
	name: "res4b12_branch2b_relu"
	type: "ReLU"
}

layer {
	bottom: "res4b12_branch2b"
	top: "res4b12_branch2c"
	name: "res4b12_branch2c"
	type: "Convolution"
	param {
		name: "res4b12_branch2c_0"
               lr_mult: 1
               decay_mult: 1
        }
        convolution_param {
		num_output: 1024
		kernel_size: 1
		pad: 0
		stride: 1
		bias_term: false
	}
}

layer {
	bottom: "res4b12_branch2c"
	top: "res4b12_branch2c"
	name: "bn4b12_branch2c"
	type: "BatchNorm"
	batch_norm_param {
		use_global_stats: true
	}
	param {
		name: "bn4b12_branch2c_0"
	      lr_mult: 0
	}
	param {
		name: "bn4b12_branch2c_1"
	      lr_mult: 0
        }
	param {
		name: "bn4b12_branch2c_2"
	      lr_mult: 0
        }
}

layer {
	bottom: "res4b12_branch2c"
	top: "res4b12_branch2c"
	name: "scale4b12_branch2c"
	type: "Scale"
	scale_param {
		bias_term: true
	}
	param {
		name: "scale4b12_branch2c_0"
	      lr_mult: 0
	}
	param {
		name: "scale4b12_branch2c_1"
	      lr_mult: 0
	}
}

layer {
	bottom: "res4b11"
	bottom: "res4b12_branch2c"
	top: "res4b12"
	name: "res4b12"
	type: "Eltwise"
}

layer {
	bottom: "res4b12"
	top: "res4b12"
	name: "res4b12_relu"
	type: "ReLU"
}

layer {
	bottom: "res4b12"
	top: "res4b13_branch2a"
	name: "res4b13_branch2a"
	type: "Convolution"
	param {
		name: "res4b13_branch2a_0"
               lr_mult: 1
               decay_mult: 1
        }
        convolution_param {
		num_output: 256
		kernel_size: 1
		pad: 0
		stride: 1
		bias_term: false
	}
}

layer {
	bottom: "res4b13_branch2a"
	top: "res4b13_branch2a"
	name: "bn4b13_branch2a"
	type: "BatchNorm"
	batch_norm_param {
		use_global_stats: true
	}
	param {
		name: "bn4b13_branch2a_0"
	      lr_mult: 0
	}
	param {
		name: "bn4b13_branch2a_1"
	      lr_mult: 0
        }
	param {
		name: "bn4b13_branch2a_2"
	      lr_mult: 0
        }
}

layer {
	bottom: "res4b13_branch2a"
	top: "res4b13_branch2a"
	name: "scale4b13_branch2a"
	type: "Scale"
	scale_param {
		bias_term: true
	}
	param {
		name: "scale4b13_branch2a_0"
	      lr_mult: 0
	}
	param {
		name: "scale4b13_branch2a_1"
	      lr_mult: 0
	}
}

layer {
	top: "res4b13_branch2a"
	bottom: "res4b13_branch2a"
	name: "res4b13_branch2a_relu"
	type: "ReLU"
}

layer {
	bottom: "res4b13_branch2a"
	top: "res4b13_branch2b"
	name: "res4b13_branch2b"
	type: "Convolution"
	param {
		name: "res4b13_branch2b_0"
               lr_mult: 1
               decay_mult: 1
        }
        convolution_param {
		num_output: 256
		kernel_size: 3
		pad: 2
		dilation: 2
		stride: 1
		bias_term: false
	}
}

layer {
	bottom: "res4b13_branch2b"
	top: "res4b13_branch2b"
	name: "bn4b13_branch2b"
	type: "BatchNorm"
	batch_norm_param {
		use_global_stats: true
	}
	param {
		name: "bn4b13_branch2b_0"
	      lr_mult: 0
	}
	param {
		name: "bn4b13_branch2b_1"
	      lr_mult: 0
        }
	param {
		name: "bn4b13_branch2b_2"
	      lr_mult: 0
        }
}

layer {
	bottom: "res4b13_branch2b"
	top: "res4b13_branch2b"
	name: "scale4b13_branch2b"
	type: "Scale"
	scale_param {
		bias_term: true
	}
	param {
		name: "scale4b13_branch2b_0"
	      lr_mult: 0
	}
	param {
		name: "scale4b13_branch2b_1"
	      lr_mult: 0
	}
}

layer {
	top: "res4b13_branch2b"
	bottom: "res4b13_branch2b"
	name: "res4b13_branch2b_relu"
	type: "ReLU"
}

layer {
	bottom: "res4b13_branch2b"
	top: "res4b13_branch2c"
	name: "res4b13_branch2c"
	type: "Convolution"
	param {
		name: "res4b13_branch2c_0"
               lr_mult: 1
               decay_mult: 1
        }
        convolution_param {
		num_output: 1024
		kernel_size: 1
		pad: 0
		stride: 1
		bias_term: false
	}
}

layer {
	bottom: "res4b13_branch2c"
	top: "res4b13_branch2c"
	name: "bn4b13_branch2c"
	type: "BatchNorm"
	batch_norm_param {
		use_global_stats: true
	}
	param {
		name: "bn4b13_branch2c_0"
	      lr_mult: 0
	}
	param {
		name: "bn4b13_branch2c_1"
	      lr_mult: 0
        }
	param {
		name: "bn4b13_branch2c_2"
	      lr_mult: 0
        }
}

layer {
	bottom: "res4b13_branch2c"
	top: "res4b13_branch2c"
	name: "scale4b13_branch2c"
	type: "Scale"
	scale_param {
		bias_term: true
	}
	param {
		name: "scale4b13_branch2c_0"
	      lr_mult: 0
	}
	param {
		name: "scale4b13_branch2c_1"
	      lr_mult: 0
	}
}

layer {
	bottom: "res4b12"
	bottom: "res4b13_branch2c"
	top: "res4b13"
	name: "res4b13"
	type: "Eltwise"
}

layer {
	bottom: "res4b13"
	top: "res4b13"
	name: "res4b13_relu"
	type: "ReLU"
}

layer {
	bottom: "res4b13"
	top: "res4b14_branch2a"
	name: "res4b14_branch2a"
	type: "Convolution"
	param {
		name: "res4b14_branch2a_0"
               lr_mult: 1
               decay_mult: 1
        }
        convolution_param {
		num_output: 256
		kernel_size: 1
		pad: 0
		stride: 1
		bias_term: false
	}
}

layer {
	bottom: "res4b14_branch2a"
	top: "res4b14_branch2a"
	name: "bn4b14_branch2a"
	type: "BatchNorm"
	batch_norm_param {
		use_global_stats: true
	}
	param {
		name: "bn4b14_branch2a_0"
	      lr_mult: 0
	}
	param {
		name: "bn4b14_branch2a_1"
	      lr_mult: 0
        }
	param {
		name: "bn4b14_branch2a_2"
	      lr_mult: 0
        }
}

layer {
	bottom: "res4b14_branch2a"
	top: "res4b14_branch2a"
	name: "scale4b14_branch2a"
	type: "Scale"
	scale_param {
		bias_term: true
	}
	param {
		name: "scale4b14_branch2a_0"
	      lr_mult: 0
	}
	param {
		name: "scale4b14_branch2a_1"
	      lr_mult: 0
	}
}

layer {
	top: "res4b14_branch2a"
	bottom: "res4b14_branch2a"
	name: "res4b14_branch2a_relu"
	type: "ReLU"
}

layer {
	bottom: "res4b14_branch2a"
	top: "res4b14_branch2b"
	name: "res4b14_branch2b"
	type: "Convolution"
	param {
		name: "res4b14_branch2b_0"
               lr_mult: 1
               decay_mult: 1
        }
        convolution_param {
		num_output: 256
		kernel_size: 3
		pad: 2
		dilation: 2
		stride: 1
		bias_term: false
	}
}

layer {
	bottom: "res4b14_branch2b"
	top: "res4b14_branch2b"
	name: "bn4b14_branch2b"
	type: "BatchNorm"
	batch_norm_param {
		use_global_stats: true
	}
	param {
		name: "bn4b14_branch2b_0"
	      lr_mult: 0
	}
	param {
		name: "bn4b14_branch2b_1"
	      lr_mult: 0
        }
	param {
		name: "bn4b14_branch2b_2"
	      lr_mult: 0
        }
}

layer {
	bottom: "res4b14_branch2b"
	top: "res4b14_branch2b"
	name: "scale4b14_branch2b"
	type: "Scale"
	scale_param {
		bias_term: true
	}
	param {
		name: "scale4b14_branch2b_0"
	      lr_mult: 0
	}
	param {
		name: "scale4b14_branch2b_1"
	      lr_mult: 0
	}
}

layer {
	top: "res4b14_branch2b"
	bottom: "res4b14_branch2b"
	name: "res4b14_branch2b_relu"
	type: "ReLU"
}

layer {
	bottom: "res4b14_branch2b"
	top: "res4b14_branch2c"
	name: "res4b14_branch2c"
	type: "Convolution"
	param {
		name: "res4b14_branch2c_0"
               lr_mult: 1
               decay_mult: 1
        }
        convolution_param {
		num_output: 1024
		kernel_size: 1
		pad: 0
		stride: 1
		bias_term: false
	}
}

layer {
	bottom: "res4b14_branch2c"
	top: "res4b14_branch2c"
	name: "bn4b14_branch2c"
	type: "BatchNorm"
	batch_norm_param {
		use_global_stats: true
	}
	param {
		name: "bn4b14_branch2c_0"
	      lr_mult: 0
	}
	param {
		name: "bn4b14_branch2c_1"
	      lr_mult: 0
        }
	param {
		name: "bn4b14_branch2c_2"
	      lr_mult: 0
        }
}

layer {
	bottom: "res4b14_branch2c"
	top: "res4b14_branch2c"
	name: "scale4b14_branch2c"
	type: "Scale"
	scale_param {
		bias_term: true
	}
	param {
		name: "scale4b14_branch2c_0"
	      lr_mult: 0
	}
	param {
		name: "scale4b14_branch2c_1"
	      lr_mult: 0
	}
}

layer {
	bottom: "res4b13"
	bottom: "res4b14_branch2c"
	top: "res4b14"
	name: "res4b14"
	type: "Eltwise"
}

layer {
	bottom: "res4b14"
	top: "res4b14"
	name: "res4b14_relu"
	type: "ReLU"
}

layer {
	bottom: "res4b14"
	top: "res4b15_branch2a"
	name: "res4b15_branch2a"
	type: "Convolution"
	param {
		name: "res4b15_branch2a_0"
               lr_mult: 1
               decay_mult: 1
        }
        convolution_param {
		num_output: 256
		kernel_size: 1
		pad: 0
		stride: 1
		bias_term: false
	}
}

layer {
	bottom: "res4b15_branch2a"
	top: "res4b15_branch2a"
	name: "bn4b15_branch2a"
	type: "BatchNorm"
	batch_norm_param {
		use_global_stats: true
	}
	param {
		name: "bn4b15_branch2a_0"
	      lr_mult: 0
	}
	param {
		name: "bn4b15_branch2a_1"
	      lr_mult: 0
        }
	param {
		name: "bn4b15_branch2a_2"
	      lr_mult: 0
        }
}

layer {
	bottom: "res4b15_branch2a"
	top: "res4b15_branch2a"
	name: "scale4b15_branch2a"
	type: "Scale"
	scale_param {
		bias_term: true
	}
	param {
		name: "scale4b15_branch2a_0"
	      lr_mult: 0
	}
	param {
		name: "scale4b15_branch2a_1"
	      lr_mult: 0
	}
}

layer {
	top: "res4b15_branch2a"
	bottom: "res4b15_branch2a"
	name: "res4b15_branch2a_relu"
	type: "ReLU"
}

layer {
	bottom: "res4b15_branch2a"
	top: "res4b15_branch2b"
	name: "res4b15_branch2b"
	type: "Convolution"
	param {
		name: "res4b15_branch2b_0"
               lr_mult: 1
               decay_mult: 1
        }
        convolution_param {
		num_output: 256
		kernel_size: 3
		pad: 2
		dilation: 2
		stride: 1
		bias_term: false
	}
}

layer {
	bottom: "res4b15_branch2b"
	top: "res4b15_branch2b"
	name: "bn4b15_branch2b"
	type: "BatchNorm"
	batch_norm_param {
		use_global_stats: true
	}
	param {
		name: "bn4b15_branch2b_0"
	      lr_mult: 0
	}
	param {
		name: "bn4b15_branch2b_1"
	      lr_mult: 0
        }
	param {
		name: "bn4b15_branch2b_2"
	      lr_mult: 0
        }
}

layer {
	bottom: "res4b15_branch2b"
	top: "res4b15_branch2b"
	name: "scale4b15_branch2b"
	type: "Scale"
	scale_param {
		bias_term: true
	}
	param {
		name: "scale4b15_branch2b_0"
	      lr_mult: 0
	}
	param {
		name: "scale4b15_branch2b_1"
	      lr_mult: 0
	}
}

layer {
	top: "res4b15_branch2b"
	bottom: "res4b15_branch2b"
	name: "res4b15_branch2b_relu"
	type: "ReLU"
}

layer {
	bottom: "res4b15_branch2b"
	top: "res4b15_branch2c"
	name: "res4b15_branch2c"
	type: "Convolution"
	param {
		name: "res4b15_branch2c_0"
               lr_mult: 1
               decay_mult: 1
        }
        convolution_param {
		num_output: 1024
		kernel_size: 1
		pad: 0
		stride: 1
		bias_term: false
	}
}

layer {
	bottom: "res4b15_branch2c"
	top: "res4b15_branch2c"
	name: "bn4b15_branch2c"
	type: "BatchNorm"
	batch_norm_param {
		use_global_stats: true
	}
	param {
		name: "bn4b15_branch2c_0"
	      lr_mult: 0
	}
	param {
		name: "bn4b15_branch2c_1"
	      lr_mult: 0
        }
	param {
		name: "bn4b15_branch2c_2"
	      lr_mult: 0
        }
}

layer {
	bottom: "res4b15_branch2c"
	top: "res4b15_branch2c"
	name: "scale4b15_branch2c"
	type: "Scale"
	scale_param {
		bias_term: true
	}
	param {
		name: "scale4b15_branch2c_0"
	      lr_mult: 0
	}
	param {
		name: "scale4b15_branch2c_1"
	      lr_mult: 0
	}
}

layer {
	bottom: "res4b14"
	bottom: "res4b15_branch2c"
	top: "res4b15"
	name: "res4b15"
	type: "Eltwise"
}

layer {
	bottom: "res4b15"
	top: "res4b15"
	name: "res4b15_relu"
	type: "ReLU"
}

layer {
	bottom: "res4b15"
	top: "res4b16_branch2a"
	name: "res4b16_branch2a"
	type: "Convolution"
	param {
		name: "res4b16_branch2a_0"
               lr_mult: 1
               decay_mult: 1
        }
        convolution_param {
		num_output: 256
		kernel_size: 1
		pad: 0
		stride: 1
		bias_term: false
	}
}

layer {
	bottom: "res4b16_branch2a"
	top: "res4b16_branch2a"
	name: "bn4b16_branch2a"
	type: "BatchNorm"
	batch_norm_param {
		use_global_stats: true
	}
	param {
		name: "bn4b16_branch2a_0"
	      lr_mult: 0
	}
	param {
		name: "bn4b16_branch2a_1"
	      lr_mult: 0
        }
	param {
		name: "bn4b16_branch2a_2"
	      lr_mult: 0
        }
}

layer {
	bottom: "res4b16_branch2a"
	top: "res4b16_branch2a"
	name: "scale4b16_branch2a"
	type: "Scale"
	scale_param {
		bias_term: true
	}
	param {
		name: "scale4b16_branch2a_0"
	      lr_mult: 0
	}
	param {
		name: "scale4b16_branch2a_1"
	      lr_mult: 0
	}
}

layer {
	top: "res4b16_branch2a"
	bottom: "res4b16_branch2a"
	name: "res4b16_branch2a_relu"
	type: "ReLU"
}

layer {
	bottom: "res4b16_branch2a"
	top: "res4b16_branch2b"
	name: "res4b16_branch2b"
	type: "Convolution"
	param {
		name: "res4b16_branch2b_0"
               lr_mult: 1
               decay_mult: 1
        }
        convolution_param {
		num_output: 256
		kernel_size: 3
		pad: 2
		dilation: 2
		stride: 1
		bias_term: false
	}
}

layer {
	bottom: "res4b16_branch2b"
	top: "res4b16_branch2b"
	name: "bn4b16_branch2b"
	type: "BatchNorm"
	batch_norm_param {
		use_global_stats: true
	}
	param {
		name: "bn4b16_branch2b_0"
	      lr_mult: 0
	}
	param {
		name: "bn4b16_branch2b_1"
	      lr_mult: 0
        }
	param {
		name: "bn4b16_branch2b_2"
	      lr_mult: 0
        }
}

layer {
	bottom: "res4b16_branch2b"
	top: "res4b16_branch2b"
	name: "scale4b16_branch2b"
	type: "Scale"
	scale_param {
		bias_term: true
	}
	param {
		name: "scale4b16_branch2b_0"
	      lr_mult: 0
	}
	param {
		name: "scale4b16_branch2b_1"
	      lr_mult: 0
	}
}

layer {
	top: "res4b16_branch2b"
	bottom: "res4b16_branch2b"
	name: "res4b16_branch2b_relu"
	type: "ReLU"
}

layer {
	bottom: "res4b16_branch2b"
	top: "res4b16_branch2c"
	name: "res4b16_branch2c"
	type: "Convolution"
	param {
		name: "res4b16_branch2c_0"
               lr_mult: 1
               decay_mult: 1
        }
        convolution_param {
		num_output: 1024
		kernel_size: 1
		pad: 0
		stride: 1
		bias_term: false
	}
}

layer {
	bottom: "res4b16_branch2c"
	top: "res4b16_branch2c"
	name: "bn4b16_branch2c"
	type: "BatchNorm"
	batch_norm_param {
		use_global_stats: true
	}
	param {
		name: "bn4b16_branch2c_0"
	      lr_mult: 0
	}
	param {
		name: "bn4b16_branch2c_1"
	      lr_mult: 0
        }
	param {
		name: "bn4b16_branch2c_2"
	      lr_mult: 0
        }
}

layer {
	bottom: "res4b16_branch2c"
	top: "res4b16_branch2c"
	name: "scale4b16_branch2c"
	type: "Scale"
	scale_param {
		bias_term: true
	}
	param {
		name: "scale4b16_branch2c_0"
	      lr_mult: 0
	}
	param {
		name: "scale4b16_branch2c_1"
	      lr_mult: 0
	}
}

layer {
	bottom: "res4b15"
	bottom: "res4b16_branch2c"
	top: "res4b16"
	name: "res4b16"
	type: "Eltwise"
}

layer {
	bottom: "res4b16"
	top: "res4b16"
	name: "res4b16_relu"
	type: "ReLU"
}

layer {
	bottom: "res4b16"
	top: "res4b17_branch2a"
	name: "res4b17_branch2a"
	type: "Convolution"
	param {
		name: "res4b17_branch2a_0"
               lr_mult: 1
               decay_mult: 1
        }
        convolution_param {
		num_output: 256
		kernel_size: 1
		pad: 0
		stride: 1
		bias_term: false
	}
}

layer {
	bottom: "res4b17_branch2a"
	top: "res4b17_branch2a"
	name: "bn4b17_branch2a"
	type: "BatchNorm"
	batch_norm_param {
		use_global_stats: true
	}
	param {
		name: "bn4b17_branch2a_0"
	      lr_mult: 0
	}
	param {
		name: "bn4b17_branch2a_1"
	      lr_mult: 0
        }
	param {
		name: "bn4b17_branch2a_2"
	      lr_mult: 0
        }
}

layer {
	bottom: "res4b17_branch2a"
	top: "res4b17_branch2a"
	name: "scale4b17_branch2a"
	type: "Scale"
	scale_param {
		bias_term: true
	}
	param {
		name: "scale4b17_branch2a_0"
	      lr_mult: 0
	}
	param {
		name: "scale4b17_branch2a_1"
	      lr_mult: 0
	}
}

layer {
	top: "res4b17_branch2a"
	bottom: "res4b17_branch2a"
	name: "res4b17_branch2a_relu"
	type: "ReLU"
}

layer {
	bottom: "res4b17_branch2a"
	top: "res4b17_branch2b"
	name: "res4b17_branch2b"
	type: "Convolution"
	param {
		name: "res4b17_branch2b_0"
               lr_mult: 1
               decay_mult: 1
        }
        convolution_param {
		num_output: 256
		kernel_size: 3
		pad: 2
		dilation: 2
		stride: 1
		bias_term: false
	}
}

layer {
	bottom: "res4b17_branch2b"
	top: "res4b17_branch2b"
	name: "bn4b17_branch2b"
	type: "BatchNorm"
	batch_norm_param {
		use_global_stats: true
	}
	param {
		name: "bn4b17_branch2b_0"
	      lr_mult: 0
	}
	param {
		name: "bn4b17_branch2b_1"
	      lr_mult: 0
        }
	param {
		name: "bn4b17_branch2b_2"
	      lr_mult: 0
        }
}

layer {
	bottom: "res4b17_branch2b"
	top: "res4b17_branch2b"
	name: "scale4b17_branch2b"
	type: "Scale"
	scale_param {
		bias_term: true
	}
	param {
		name: "scale4b17_branch2b_0"
	      lr_mult: 0
	}
	param {
		name: "scale4b17_branch2b_1"
	      lr_mult: 0
	}
}

layer {
	top: "res4b17_branch2b"
	bottom: "res4b17_branch2b"
	name: "res4b17_branch2b_relu"
	type: "ReLU"
}

layer {
	bottom: "res4b17_branch2b"
	top: "res4b17_branch2c"
	name: "res4b17_branch2c"
	type: "Convolution"
	param {
		name: "res4b17_branch2c_0"
               lr_mult: 1
               decay_mult: 1
        }
        convolution_param {
		num_output: 1024
		kernel_size: 1
		pad: 0
		stride: 1
		bias_term: false
	}
}

layer {
	bottom: "res4b17_branch2c"
	top: "res4b17_branch2c"
	name: "bn4b17_branch2c"
	type: "BatchNorm"
	batch_norm_param {
		use_global_stats: true
	}
	param {
		name: "bn4b17_branch2c_0"
	      lr_mult: 0
	}
	param {
		name: "bn4b17_branch2c_1"
	      lr_mult: 0
        }
	param {
		name: "bn4b17_branch2c_2"
	      lr_mult: 0
        }
}

layer {
	bottom: "res4b17_branch2c"
	top: "res4b17_branch2c"
	name: "scale4b17_branch2c"
	type: "Scale"
	scale_param {
		bias_term: true
	}
	param {
		name: "scale4b17_branch2c_0"
	      lr_mult: 0
	}
	param {
		name: "scale4b17_branch2c_1"
	      lr_mult: 0
	}
}

layer {
	bottom: "res4b16"
	bottom: "res4b17_branch2c"
	top: "res4b17"
	name: "res4b17"
	type: "Eltwise"
}

layer {
	bottom: "res4b17"
	top: "res4b17"
	name: "res4b17_relu"
	type: "ReLU"
}

layer {
	bottom: "res4b17"
	top: "res4b18_branch2a"
	name: "res4b18_branch2a"
	type: "Convolution"
	param {
		name: "res4b18_branch2a_0"
               lr_mult: 1
               decay_mult: 1
        }
        convolution_param {
		num_output: 256
		kernel_size: 1
		pad: 0
		stride: 1
		bias_term: false
	}
}

layer {
	bottom: "res4b18_branch2a"
	top: "res4b18_branch2a"
	name: "bn4b18_branch2a"
	type: "BatchNorm"
	batch_norm_param {
		use_global_stats: true
	}
	param {
		name: "bn4b18_branch2a_0"
	      lr_mult: 0
	}
	param {
		name: "bn4b18_branch2a_1"
	      lr_mult: 0
        }
	param {
		name: "bn4b18_branch2a_2"
	      lr_mult: 0
        }
}

layer {
	bottom: "res4b18_branch2a"
	top: "res4b18_branch2a"
	name: "scale4b18_branch2a"
	type: "Scale"
	scale_param {
		bias_term: true
	}
	param {
		name: "scale4b18_branch2a_0"
	      lr_mult: 0
	}
	param {
		name: "scale4b18_branch2a_1"
	      lr_mult: 0
	}
}

layer {
	top: "res4b18_branch2a"
	bottom: "res4b18_branch2a"
	name: "res4b18_branch2a_relu"
	type: "ReLU"
}

layer {
	bottom: "res4b18_branch2a"
	top: "res4b18_branch2b"
	name: "res4b18_branch2b"
	type: "Convolution"
	param {
		name: "res4b18_branch2b_0"
               lr_mult: 1
               decay_mult: 1
        }
        convolution_param {
		num_output: 256
		kernel_size: 3
		pad: 2
		dilation: 2
		stride: 1
		bias_term: false
	}
}

layer {
	bottom: "res4b18_branch2b"
	top: "res4b18_branch2b"
	name: "bn4b18_branch2b"
	type: "BatchNorm"
	batch_norm_param {
		use_global_stats: true
	}
	param {
		name: "bn4b18_branch2b_0"
	      lr_mult: 0
	}
	param {
		name: "bn4b18_branch2b_1"
	      lr_mult: 0
        }
	param {
		name: "bn4b18_branch2b_2"
	      lr_mult: 0
        }
}

layer {
	bottom: "res4b18_branch2b"
	top: "res4b18_branch2b"
	name: "scale4b18_branch2b"
	type: "Scale"
	scale_param {
		bias_term: true
	}
	param {
		name: "scale4b18_branch2b_0"
	      lr_mult: 0
	}
	param {
		name: "scale4b18_branch2b_1"
	      lr_mult: 0
	}
}

layer {
	top: "res4b18_branch2b"
	bottom: "res4b18_branch2b"
	name: "res4b18_branch2b_relu"
	type: "ReLU"
}

layer {
	bottom: "res4b18_branch2b"
	top: "res4b18_branch2c"
	name: "res4b18_branch2c"
	type: "Convolution"
	param {
		name: "res4b18_branch2c_0"
               lr_mult: 1
               decay_mult: 1
        }
        convolution_param {
		num_output: 1024
		kernel_size: 1
		pad: 0
		stride: 1
		bias_term: false
	}
}

layer {
	bottom: "res4b18_branch2c"
	top: "res4b18_branch2c"
	name: "bn4b18_branch2c"
	type: "BatchNorm"
	batch_norm_param {
		use_global_stats: true
	}
	param {
		name: "bn4b18_branch2c_0"
	      lr_mult: 0
	}
	param {
		name: "bn4b18_branch2c_1"
	      lr_mult: 0
        }
	param {
		name: "bn4b18_branch2c_2"
	      lr_mult: 0
        }
}

layer {
	bottom: "res4b18_branch2c"
	top: "res4b18_branch2c"
	name: "scale4b18_branch2c"
	type: "Scale"
	scale_param {
		bias_term: true
	}
	param {
		name: "scale4b18_branch2c_0"
	      lr_mult: 0
	}
	param {
		name: "scale4b18_branch2c_1"
	      lr_mult: 0
	}
}

layer {
	bottom: "res4b17"
	bottom: "res4b18_branch2c"
	top: "res4b18"
	name: "res4b18"
	type: "Eltwise"
}

layer {
	bottom: "res4b18"
	top: "res4b18"
	name: "res4b18_relu"
	type: "ReLU"
}

layer {
	bottom: "res4b18"
	top: "res4b19_branch2a"
	name: "res4b19_branch2a"
	type: "Convolution"
	param {
		name: "res4b19_branch2a_0"
               lr_mult: 1
               decay_mult: 1
        }
        convolution_param {
		num_output: 256
		kernel_size: 1
		pad: 0
		stride: 1
		bias_term: false
	}
}

layer {
	bottom: "res4b19_branch2a"
	top: "res4b19_branch2a"
	name: "bn4b19_branch2a"
	type: "BatchNorm"
	batch_norm_param {
		use_global_stats: true
	}
	param {
		name: "bn4b19_branch2a_0"
	      lr_mult: 0
	}
	param {
		name: "bn4b19_branch2a_1"
	      lr_mult: 0
        }
	param {
		name: "bn4b19_branch2a_2"
	      lr_mult: 0
        }
}

layer {
	bottom: "res4b19_branch2a"
	top: "res4b19_branch2a"
	name: "scale4b19_branch2a"
	type: "Scale"
	scale_param {
		bias_term: true
	}
	param {
		name: "scale4b19_branch2a_0"
	      lr_mult: 0
	}
	param {
		name: "scale4b19_branch2a_1"
	      lr_mult: 0
	}
}

layer {
	top: "res4b19_branch2a"
	bottom: "res4b19_branch2a"
	name: "res4b19_branch2a_relu"
	type: "ReLU"
}

layer {
	bottom: "res4b19_branch2a"
	top: "res4b19_branch2b"
	name: "res4b19_branch2b"
	type: "Convolution"
	param {
		name: "res4b19_branch2b_0"
               lr_mult: 1
               decay_mult: 1
        }
        convolution_param {
		num_output: 256
		kernel_size: 3
		pad: 2
		dilation: 2
		stride: 1
		bias_term: false
	}
}

layer {
	bottom: "res4b19_branch2b"
	top: "res4b19_branch2b"
	name: "bn4b19_branch2b"
	type: "BatchNorm"
	batch_norm_param {
		use_global_stats: true
	}
	param {
		name: "bn4b19_branch2b_0"
	      lr_mult: 0
	}
	param {
		name: "bn4b19_branch2b_1"
	      lr_mult: 0
        }
	param {
		name: "bn4b19_branch2b_2"
	      lr_mult: 0
        }
}

layer {
	bottom: "res4b19_branch2b"
	top: "res4b19_branch2b"
	name: "scale4b19_branch2b"
	type: "Scale"
	scale_param {
		bias_term: true
	}
	param {
		name: "scale4b19_branch2b_0"
	      lr_mult: 0
	}
	param {
		name: "scale4b19_branch2b_1"
	      lr_mult: 0
	}
}

layer {
	top: "res4b19_branch2b"
	bottom: "res4b19_branch2b"
	name: "res4b19_branch2b_relu"
	type: "ReLU"
}

layer {
	bottom: "res4b19_branch2b"
	top: "res4b19_branch2c"
	name: "res4b19_branch2c"
	type: "Convolution"
	param {
		name: "res4b19_branch2c_0"
               lr_mult: 1
               decay_mult: 1
        }
        convolution_param {
		num_output: 1024
		kernel_size: 1
		pad: 0
		stride: 1
		bias_term: false
	}
}

layer {
	bottom: "res4b19_branch2c"
	top: "res4b19_branch2c"
	name: "bn4b19_branch2c"
	type: "BatchNorm"
	batch_norm_param {
		use_global_stats: true
	}
	param {
		name: "bn4b19_branch2c_0"
	      lr_mult: 0
	}
	param {
		name: "bn4b19_branch2c_1"
	      lr_mult: 0
        }
	param {
		name: "bn4b19_branch2c_2"
	      lr_mult: 0
        }
}

layer {
	bottom: "res4b19_branch2c"
	top: "res4b19_branch2c"
	name: "scale4b19_branch2c"
	type: "Scale"
	scale_param {
		bias_term: true
	}
	param {
		name: "scale4b19_branch2c_0"
	      lr_mult: 0
	}
	param {
		name: "scale4b19_branch2c_1"
	      lr_mult: 0
	}
}

layer {
	bottom: "res4b18"
	bottom: "res4b19_branch2c"
	top: "res4b19"
	name: "res4b19"
	type: "Eltwise"
}

layer {
	bottom: "res4b19"
	top: "res4b19"
	name: "res4b19_relu"
	type: "ReLU"
}

layer {
	bottom: "res4b19"
	top: "res4b20_branch2a"
	name: "res4b20_branch2a"
	type: "Convolution"
	param {
		name: "res4b20_branch2a_0"
               lr_mult: 1
               decay_mult: 1
        }
        convolution_param {
		num_output: 256
		kernel_size: 1
		pad: 0
		stride: 1
		bias_term: false
	}
}

layer {
	bottom: "res4b20_branch2a"
	top: "res4b20_branch2a"
	name: "bn4b20_branch2a"
	type: "BatchNorm"
	batch_norm_param {
		use_global_stats: true
	}
	param {
		name: "bn4b20_branch2a_0"
	      lr_mult: 0
	}
	param {
		name: "bn4b20_branch2a_1"
	      lr_mult: 0
        }
	param {
		name: "bn4b20_branch2a_2"
	      lr_mult: 0
        }
}

layer {
	bottom: "res4b20_branch2a"
	top: "res4b20_branch2a"
	name: "scale4b20_branch2a"
	type: "Scale"
	scale_param {
		bias_term: true
	}
	param {
		name: "scale4b20_branch2a_0"
	      lr_mult: 0
	}
	param {
		name: "scale4b20_branch2a_1"
	      lr_mult: 0
	}
}

layer {
	top: "res4b20_branch2a"
	bottom: "res4b20_branch2a"
	name: "res4b20_branch2a_relu"
	type: "ReLU"
}

layer {
	bottom: "res4b20_branch2a"
	top: "res4b20_branch2b"
	name: "res4b20_branch2b"
	type: "Convolution"
	param {
		name: "res4b20_branch2b_0"
               lr_mult: 1
               decay_mult: 1
        }
        convolution_param {
		num_output: 256
		kernel_size: 3
		pad: 2
		dilation: 2
		stride: 1
		bias_term: false
	}
}

layer {
	bottom: "res4b20_branch2b"
	top: "res4b20_branch2b"
	name: "bn4b20_branch2b"
	type: "BatchNorm"
	batch_norm_param {
		use_global_stats: true
	}
	param {
		name: "bn4b20_branch2b_0"
	      lr_mult: 0
	}
	param {
		name: "bn4b20_branch2b_1"
	      lr_mult: 0
        }
	param {
		name: "bn4b20_branch2b_2"
	      lr_mult: 0
        }
}

layer {
	bottom: "res4b20_branch2b"
	top: "res4b20_branch2b"
	name: "scale4b20_branch2b"
	type: "Scale"
	scale_param {
		bias_term: true
	}
	param {
		name: "scale4b20_branch2b_0"
	      lr_mult: 0
	}
	param {
		name: "scale4b20_branch2b_1"
	      lr_mult: 0
	}
}

layer {
	top: "res4b20_branch2b"
	bottom: "res4b20_branch2b"
	name: "res4b20_branch2b_relu"
	type: "ReLU"
}

layer {
	bottom: "res4b20_branch2b"
	top: "res4b20_branch2c"
	name: "res4b20_branch2c"
	type: "Convolution"
	param {
		name: "res4b20_branch2c_0"
               lr_mult: 1
               decay_mult: 1
        }
        convolution_param {
		num_output: 1024
		kernel_size: 1
		pad: 0
		stride: 1
		bias_term: false
	}
}

layer {
	bottom: "res4b20_branch2c"
	top: "res4b20_branch2c"
	name: "bn4b20_branch2c"
	type: "BatchNorm"
	batch_norm_param {
		use_global_stats: true
	}
	param {
		name: "bn4b20_branch2c_0"
	      lr_mult: 0
	}
	param {
		name: "bn4b20_branch2c_1"
	      lr_mult: 0
        }
	param {
		name: "bn4b20_branch2c_2"
	      lr_mult: 0
        }
}

layer {
	bottom: "res4b20_branch2c"
	top: "res4b20_branch2c"
	name: "scale4b20_branch2c"
	type: "Scale"
	scale_param {
		bias_term: true
	}
	param {
		name: "scale4b20_branch2c_0"
	      lr_mult: 0
	}
	param {
		name: "scale4b20_branch2c_1"
	      lr_mult: 0
	}
}

layer {
	bottom: "res4b19"
	bottom: "res4b20_branch2c"
	top: "res4b20"
	name: "res4b20"
	type: "Eltwise"
}

layer {
	bottom: "res4b20"
	top: "res4b20"
	name: "res4b20_relu"
	type: "ReLU"
}

layer {
	bottom: "res4b20"
	top: "res4b21_branch2a"
	name: "res4b21_branch2a"
	type: "Convolution"
	param {
		name: "res4b21_branch2a_0"
               lr_mult: 1
               decay_mult: 1
        }
        convolution_param {
		num_output: 256
		kernel_size: 1
		pad: 0
		stride: 1
		bias_term: false
	}
}

layer {
	bottom: "res4b21_branch2a"
	top: "res4b21_branch2a"
	name: "bn4b21_branch2a"
	type: "BatchNorm"
	batch_norm_param {
		use_global_stats: true
	}
	param {
		name: "bn4b21_branch2a_0"
	      lr_mult: 0
	}
	param {
		name: "bn4b21_branch2a_1"
	      lr_mult: 0
        }
	param {
		name: "bn4b21_branch2a_2"
	      lr_mult: 0
        }
}

layer {
	bottom: "res4b21_branch2a"
	top: "res4b21_branch2a"
	name: "scale4b21_branch2a"
	type: "Scale"
	scale_param {
		bias_term: true
	}
	param {
		name: "scale4b21_branch2a_0"
	      lr_mult: 0
	}
	param {
		name: "scale4b21_branch2a_1"
	      lr_mult: 0
	}
}

layer {
	top: "res4b21_branch2a"
	bottom: "res4b21_branch2a"
	name: "res4b21_branch2a_relu"
	type: "ReLU"
}

layer {
	bottom: "res4b21_branch2a"
	top: "res4b21_branch2b"
	name: "res4b21_branch2b"
	type: "Convolution"
	param {
		name: "res4b21_branch2b_0"
               lr_mult: 1
               decay_mult: 1
        }
        convolution_param {
		num_output: 256
		kernel_size: 3
		pad: 2
		dilation: 2
		stride: 1
		bias_term: false
	}
}

layer {
	bottom: "res4b21_branch2b"
	top: "res4b21_branch2b"
	name: "bn4b21_branch2b"
	type: "BatchNorm"
	batch_norm_param {
		use_global_stats: true
	}
	param {
		name: "bn4b21_branch2b_0"
	      lr_mult: 0
	}
	param {
		name: "bn4b21_branch2b_1"
	      lr_mult: 0
        }
	param {
		name: "bn4b21_branch2b_2"
	      lr_mult: 0
        }
}

layer {
	bottom: "res4b21_branch2b"
	top: "res4b21_branch2b"
	name: "scale4b21_branch2b"
	type: "Scale"
	scale_param {
		bias_term: true
	}
	param {
		name: "scale4b21_branch2b_0"
	      lr_mult: 0
	}
	param {
		name: "scale4b21_branch2b_1"
	      lr_mult: 0
	}
}

layer {
	top: "res4b21_branch2b"
	bottom: "res4b21_branch2b"
	name: "res4b21_branch2b_relu"
	type: "ReLU"
}

layer {
	bottom: "res4b21_branch2b"
	top: "res4b21_branch2c"
	name: "res4b21_branch2c"
	type: "Convolution"
	param {
		name: "res4b21_branch2c_0"
               lr_mult: 1
               decay_mult: 1
        }
        convolution_param {
		num_output: 1024
		kernel_size: 1
		pad: 0
		stride: 1
		bias_term: false
	}
}

layer {
	bottom: "res4b21_branch2c"
	top: "res4b21_branch2c"
	name: "bn4b21_branch2c"
	type: "BatchNorm"
	batch_norm_param {
		use_global_stats: true
	}
	param {
		name: "bn4b21_branch2c_0"
	      lr_mult: 0
	}
	param {
		name: "bn4b21_branch2c_1"
	      lr_mult: 0
        }
	param {
		name: "bn4b21_branch2c_2"
	      lr_mult: 0
        }
}

layer {
	bottom: "res4b21_branch2c"
	top: "res4b21_branch2c"
	name: "scale4b21_branch2c"
	type: "Scale"
	scale_param {
		bias_term: true
	}
	param {
		name: "scale4b21_branch2c_0"
	      lr_mult: 0
	}
	param {
		name: "scale4b21_branch2c_1"
	      lr_mult: 0
	}
}

layer {
	bottom: "res4b20"
	bottom: "res4b21_branch2c"
	top: "res4b21"
	name: "res4b21"
	type: "Eltwise"
}

layer {
	bottom: "res4b21"
	top: "res4b21"
	name: "res4b21_relu"
	type: "ReLU"
}

layer {
	bottom: "res4b21"
	top: "res4b22_branch2a"
	name: "res4b22_branch2a"
	type: "Convolution"
	param {
		name: "res4b22_branch2a_0"
               lr_mult: 1
               decay_mult: 1
        }
        convolution_param {
		num_output: 256
		kernel_size: 1
		pad: 0
		stride: 1
		bias_term: false
	}
}

layer {
	bottom: "res4b22_branch2a"
	top: "res4b22_branch2a"
	name: "bn4b22_branch2a"
	type: "BatchNorm"
	batch_norm_param {
		use_global_stats: true
	}
	param {
		name: "bn4b22_branch2a_0"
	      lr_mult: 0
	}
	param {
		name: "bn4b22_branch2a_1"
	      lr_mult: 0
        }
	param {
		name: "bn4b22_branch2a_2"
	      lr_mult: 0
        }
}

layer {
	bottom: "res4b22_branch2a"
	top: "res4b22_branch2a"
	name: "scale4b22_branch2a"
	type: "Scale"
	scale_param {
		bias_term: true
	}
	param {
		name: "scale4b22_branch2a_0"
	      lr_mult: 0
	}
	param {
		name: "scale4b22_branch2a_1"
	      lr_mult: 0
	}
}

layer {
	top: "res4b22_branch2a"
	bottom: "res4b22_branch2a"
	name: "res4b22_branch2a_relu"
	type: "ReLU"
}

layer {
	bottom: "res4b22_branch2a"
	top: "res4b22_branch2b"
	name: "res4b22_branch2b"
	type: "Convolution"
	param {
		name: "res4b22_branch2b_0"
               lr_mult: 1
               decay_mult: 1
        }
        convolution_param {
		num_output: 256
		kernel_size: 3
		pad: 2
		dilation: 2
		stride: 1
		bias_term: false
	}
}

layer {
	bottom: "res4b22_branch2b"
	top: "res4b22_branch2b"
	name: "bn4b22_branch2b"
	type: "BatchNorm"
	batch_norm_param {
		use_global_stats: true
	}
	param {
		name: "bn4b22_branch2b_0"
	      lr_mult: 0
	}
	param {
		name: "bn4b22_branch2b_1"
	      lr_mult: 0
        }
	param {
		name: "bn4b22_branch2b_2"
	      lr_mult: 0
        }
}

layer {
	bottom: "res4b22_branch2b"
	top: "res4b22_branch2b"
	name: "scale4b22_branch2b"
	type: "Scale"
	scale_param {
		bias_term: true
	}
	param {
		name: "scale4b22_branch2b_0"
	      lr_mult: 0
	}
	param {
		name: "scale4b22_branch2b_1"
	      lr_mult: 0
	}
}

layer {
	top: "res4b22_branch2b"
	bottom: "res4b22_branch2b"
	name: "res4b22_branch2b_relu"
	type: "ReLU"
}

layer {
	bottom: "res4b22_branch2b"
	top: "res4b22_branch2c"
	name: "res4b22_branch2c"
	type: "Convolution"
	param {
		name: "res4b22_branch2c_0"
               lr_mult: 1
               decay_mult: 1
        }
        convolution_param {
		num_output: 1024
		kernel_size: 1
		pad: 0
		stride: 1
		bias_term: false
	}
}

layer {
	bottom: "res4b22_branch2c"
	top: "res4b22_branch2c"
	name: "bn4b22_branch2c"
	type: "BatchNorm"
	batch_norm_param {
		use_global_stats: true
	}
	param {
		name: "bn4b22_branch2c_0"
	      lr_mult: 0
	}
	param {
		name: "bn4b22_branch2c_1"
	      lr_mult: 0
        }
	param {
		name: "bn4b22_branch2c_2"
	      lr_mult: 0
        }
}

layer {
	bottom: "res4b22_branch2c"
	top: "res4b22_branch2c"
	name: "scale4b22_branch2c"
	type: "Scale"
	scale_param {
		bias_term: true
	}
	param {
		name: "scale4b22_branch2c_0"
	      lr_mult: 0
	}
	param {
		name: "scale4b22_branch2c_1"
	      lr_mult: 0
	}
}

layer {
	bottom: "res4b21"
	bottom: "res4b22_branch2c"
	top: "res4b22"
	name: "res4b22"
	type: "Eltwise"
}

layer {
	bottom: "res4b22"
	top: "res4b22"
	name: "res4b22_relu"
	type: "ReLU"
}

layer {
	bottom: "res4b22"
	top: "res5a_branch1"
	name: "res5a_branch1"
	type: "Convolution"
	param {
		name: "res5a_branch1_0"
               lr_mult: 1
               decay_mult: 1
        }
        convolution_param {
		num_output: 2048
		kernel_size: 1
		pad: 0
		stride: 1
		bias_term: false
	}
}

layer {
	bottom: "res5a_branch1"
	top: "res5a_branch1"
	name: "bn5a_branch1"
	type: "BatchNorm"
	batch_norm_param {
		use_global_stats: true
	}
	param {
		name: "bn5a_branch1_0"
	      lr_mult: 0
	}
	param {
		name: "bn5a_branch1_1"
	      lr_mult: 0
        }
	param {
		name: "bn5a_branch1_2"
	      lr_mult: 0
        }
}

layer {
	bottom: "res5a_branch1"
	top: "res5a_branch1"
	name: "scale5a_branch1"
	type: "Scale"
	scale_param {
		bias_term: true
	}
	param {
		name: "scale5a_branch1_0"
	      lr_mult: 0
	}
	param {
		name: "scale5a_branch1_1"
	      lr_mult: 0
	}
}

layer {
	bottom: "res4b22"
	top: "res5a_branch2a"
	name: "res5a_branch2a"
	type: "Convolution"
	param {
		name: "res5a_branch2a_0"
               lr_mult: 1
               decay_mult: 1
        }
        convolution_param {
		num_output: 512
		kernel_size: 1
		pad: 0
		stride: 1
		bias_term: false
	}
}

layer {
	bottom: "res5a_branch2a"
	top: "res5a_branch2a"
	name: "bn5a_branch2a"
	type: "BatchNorm"
	batch_norm_param {
		use_global_stats: true
	}
	param {
		name: "bn5a_branch2a_0"
	      lr_mult: 0
	}
	param {
		name: "bn5a_branch2a_1"
	      lr_mult: 0
        }
	param {
		name: "bn5a_branch2a_2"
	      lr_mult: 0
        }
}

layer {
	bottom: "res5a_branch2a"
	top: "res5a_branch2a"
	name: "scale5a_branch2a"
	type: "Scale"
	scale_param {
		bias_term: true
	}
	param {
		name: "scale5a_branch2a_0"
	      lr_mult: 0
	}
	param {
		name: "scale5a_branch2a_1"
	      lr_mult: 0
	}
}

layer {
	top: "res5a_branch2a"
	bottom: "res5a_branch2a"
	name: "res5a_branch2a_relu"
	type: "ReLU"
}

layer {
	bottom: "res5a_branch2a"
	top: "res5a_branch2b"
	name: "res5a_branch2b"
	type: "Convolution"
	param {
		name: "res5a_branch2b_0"
               lr_mult: 1
               decay_mult: 1
        }
        convolution_param {
		num_output: 512
		kernel_size: 3
		pad: 4
		dilation: 4
		stride: 1
		bias_term: false
	}
}

layer {
	bottom: "res5a_branch2b"
	top: "res5a_branch2b"
	name: "bn5a_branch2b"
	type: "BatchNorm"
	batch_norm_param {
		use_global_stats: true
	}
	param {
		name: "bn5a_branch2b_0"
	      lr_mult: 0
	}
	param {
		name: "bn5a_branch2b_1"
	      lr_mult: 0
        }
	param {
		name: "bn5a_branch2b_2"
	      lr_mult: 0
        }
}

layer {
	bottom: "res5a_branch2b"
	top: "res5a_branch2b"
	name: "scale5a_branch2b"
	type: "Scale"
	scale_param {
		bias_term: true
	}
	param {
		name: "scale5a_branch2b_0"
	      lr_mult: 0
	}
	param {
		name: "scale5a_branch2b_1"
	      lr_mult: 0
	}
}

layer {
	top: "res5a_branch2b"
	bottom: "res5a_branch2b"
	name: "res5a_branch2b_relu"
	type: "ReLU"
}

layer {
	bottom: "res5a_branch2b"
	top: "res5a_branch2c"
	name: "res5a_branch2c"
	type: "Convolution"
	param {
		name: "res5a_branch2c_0"
               lr_mult: 1
               decay_mult: 1
        }
        convolution_param {
		num_output: 2048
		kernel_size: 1
		pad: 0
		stride: 1
		bias_term: false
	}
}

layer {
	bottom: "res5a_branch2c"
	top: "res5a_branch2c"
	name: "bn5a_branch2c"
	type: "BatchNorm"
	batch_norm_param {
		use_global_stats: true
	}
	param {
		name: "bn5a_branch2c_0"
	      lr_mult: 0
	}
	param {
		name: "bn5a_branch2c_1"
	      lr_mult: 0
        }
	param {
		name: "bn5a_branch2c_2"
	      lr_mult: 0
        }
}

layer {
	bottom: "res5a_branch2c"
	top: "res5a_branch2c"
	name: "scale5a_branch2c"
	type: "Scale"
	scale_param {
		bias_term: true
	}
	param {
		name: "scale5a_branch2c_0"
	      lr_mult: 0
	}
	param {
		name: "scale5a_branch2c_1"
	      lr_mult: 0
	}
}

layer {
	bottom: "res5a_branch1"
	bottom: "res5a_branch2c"
	top: "res5a"
	name: "res5a"
	type: "Eltwise"
}

layer {
	bottom: "res5a"
	top: "res5a"
	name: "res5a_relu"
	type: "ReLU"
}

layer {
	bottom: "res5a"
	top: "res5b_branch2a"
	name: "res5b_branch2a"
	type: "Convolution"
	param {
		name: "res5b_branch2a_0"
               lr_mult: 1
               decay_mult: 1
        }
        convolution_param {
		num_output: 512
		kernel_size: 1
		pad: 0
		stride: 1
		bias_term: false
	}
}

layer {
	bottom: "res5b_branch2a"
	top: "res5b_branch2a"
	name: "bn5b_branch2a"
	type: "BatchNorm"
	batch_norm_param {
		use_global_stats: true
	}
	param {
		name: "bn5b_branch2a_0"
	      lr_mult: 0
	}
	param {
		name: "bn5b_branch2a_1"
	      lr_mult: 0
        }
	param {
		name: "bn5b_branch2a_2"
	      lr_mult: 0
        }
}

layer {
	bottom: "res5b_branch2a"
	top: "res5b_branch2a"
	name: "scale5b_branch2a"
	type: "Scale"
	scale_param {
		bias_term: true
	}
	param {
		name: "scale5b_branch2a_0"
	      lr_mult: 0
	}
	param {
		name: "scale5b_branch2a_1"
	      lr_mult: 0
	}
}

layer {
	top: "res5b_branch2a"
	bottom: "res5b_branch2a"
	name: "res5b_branch2a_relu"
	type: "ReLU"
}

layer {
	bottom: "res5b_branch2a"
	top: "res5b_branch2b"
	name: "res5b_branch2b"
	type: "Convolution"
	param {
		name: "res5b_branch2b_0"
               lr_mult: 1
               decay_mult: 1
        }
        convolution_param {
		num_output: 512
		kernel_size: 3
		pad: 4
		dilation: 4
		stride: 1
		bias_term: false
	}
}

layer {
	bottom: "res5b_branch2b"
	top: "res5b_branch2b"
	name: "bn5b_branch2b"
	type: "BatchNorm"
	batch_norm_param {
		use_global_stats: true
	}
	param {
		name: "bn5b_branch2b_0"
	      lr_mult: 0
	}
	param {
		name: "bn5b_branch2b_1"
	      lr_mult: 0
        }
	param {
		name: "bn5b_branch2b_2"
	      lr_mult: 0
        }
}

layer {
	bottom: "res5b_branch2b"
	top: "res5b_branch2b"
	name: "scale5b_branch2b"
	type: "Scale"
	scale_param {
		bias_term: true
	}
	param {
		name: "scale5b_branch2b_0"
	      lr_mult: 0
	}
	param {
		name: "scale5b_branch2b_1"
	      lr_mult: 0
	}
}

layer {
	top: "res5b_branch2b"
	bottom: "res5b_branch2b"
	name: "res5b_branch2b_relu"
	type: "ReLU"
}

layer {
	bottom: "res5b_branch2b"
	top: "res5b_branch2c"
	name: "res5b_branch2c"
	type: "Convolution"
	param {
		name: "res5b_branch2c_0"
               lr_mult: 1
               decay_mult: 1
        }
        convolution_param {
		num_output: 2048
		kernel_size: 1
		pad: 0
		stride: 1
		bias_term: false
	}
}

layer {
	bottom: "res5b_branch2c"
	top: "res5b_branch2c"
	name: "bn5b_branch2c"
	type: "BatchNorm"
	batch_norm_param {
		use_global_stats: true
	}
	param {
		name: "bn5b_branch2c_0"
	      lr_mult: 0
	}
	param {
		name: "bn5b_branch2c_1"
	      lr_mult: 0
        }
	param {
		name: "bn5b_branch2c_2"
	      lr_mult: 0
        }
}

layer {
	bottom: "res5b_branch2c"
	top: "res5b_branch2c"
	name: "scale5b_branch2c"
	type: "Scale"
	scale_param {
		bias_term: true
	}
	param {
		name: "scale5b_branch2c_0"
	      lr_mult: 0
	}
	param {
		name: "scale5b_branch2c_1"
	      lr_mult: 0
	}
}

layer {
	bottom: "res5a"
	bottom: "res5b_branch2c"
	top: "res5b"
	name: "res5b"
	type: "Eltwise"
}

layer {
	bottom: "res5b"
	top: "res5b"
	name: "res5b_relu"
	type: "ReLU"
}

layer {
	bottom: "res5b"
	top: "res5c_branch2a"
	name: "res5c_branch2a"
	type: "Convolution"
	param {
		name: "res5c_branch2a_0"
               lr_mult: 1
               decay_mult: 1
        }
        convolution_param {
		num_output: 512
		kernel_size: 1
		pad: 0
		stride: 1
		bias_term: false
	}
}

layer {
	bottom: "res5c_branch2a"
	top: "res5c_branch2a"
	name: "bn5c_branch2a"
	type: "BatchNorm"
	batch_norm_param {
		use_global_stats: true
	}
	param {
		name: "bn5c_branch2a_0"
	      lr_mult: 0
	}
	param {
		name: "bn5c_branch2a_1"
	      lr_mult: 0
        }
	param {
		name: "bn5c_branch2a_2"
	      lr_mult: 0
        }
}

layer {
	bottom: "res5c_branch2a"
	top: "res5c_branch2a"
	name: "scale5c_branch2a"
	type: "Scale"
	scale_param {
		bias_term: true
	}
	param {
		name: "scale5c_branch2a_0"
	      lr_mult: 0
	}
	param {
		name: "scale5c_branch2a_1"
	      lr_mult: 0
	}
}

layer {
	top: "res5c_branch2a"
	bottom: "res5c_branch2a"
	name: "res5c_branch2a_relu"
	type: "ReLU"
}

layer {
	bottom: "res5c_branch2a"
	top: "res5c_branch2b"
	name: "res5c_branch2b"
	type: "Convolution"
	param {
		name: "res5c_branch2b_0"
               lr_mult: 1
               decay_mult: 1
        }
        convolution_param {
		num_output: 512
		kernel_size: 3
		pad: 4
		dilation: 4
		stride: 1
		bias_term: false
	}
}

layer {
	bottom: "res5c_branch2b"
	top: "res5c_branch2b"
	name: "bn5c_branch2b"
	type: "BatchNorm"
	batch_norm_param {
		use_global_stats: true
	}
	param {
		name: "bn5c_branch2b_0"
	      lr_mult: 0
	}
	param {
		name: "bn5c_branch2b_1"
	      lr_mult: 0
        }
	param {
		name: "bn5c_branch2b_2"
	      lr_mult: 0
        }
}

layer {
	bottom: "res5c_branch2b"
	top: "res5c_branch2b"
	name: "scale5c_branch2b"
	type: "Scale"
	scale_param {
		bias_term: true
	}
	param {
		name: "scale5c_branch2b_0"
	      lr_mult: 0
	}
	param {
		name: "scale5c_branch2b_1"
	      lr_mult: 0
	}
}

layer {
	top: "res5c_branch2b"
	bottom: "res5c_branch2b"
	name: "res5c_branch2b_relu"
	type: "ReLU"
}

layer {
	bottom: "res5c_branch2b"
	top: "res5c_branch2c"
	name: "res5c_branch2c"
	type: "Convolution"
	param {
		name: "res5c_branch2c_0"
               lr_mult: 1
               decay_mult: 1
        }
        convolution_param {
		num_output: 2048
		kernel_size: 1
		pad: 0
		stride: 1
		bias_term: false
	}
}

layer {
	bottom: "res5c_branch2c"
	top: "res5c_branch2c"
	name: "bn5c_branch2c"
	type: "BatchNorm"
	batch_norm_param {
		use_global_stats: true
	}
	param {
		name: "bn5c_branch2c_0"
	      lr_mult: 0
	}
	param {
		name: "bn5c_branch2c_1"
	      lr_mult: 0
        }
	param {
		name: "bn5c_branch2c_2"
	      lr_mult: 0
        }
}

layer {
	bottom: "res5c_branch2c"
	top: "res5c_branch2c"
	name: "scale5c_branch2c"
	type: "Scale"
	scale_param {
		bias_term: true
	}
	param {
		name: "scale5c_branch2c_0"
	      lr_mult: 0
	}
	param {
		name: "scale5c_branch2c_1"
	      lr_mult: 0
	}
}

layer {
	bottom: "res5b"
	bottom: "res5c_branch2c"
	top: "res5c"
	name: "res5c"
	type: "Eltwise"
}

layer {
	bottom: "res5c"
	top: "res5c"
	name: "res5c_relu"
	type: "ReLU"
}


#################### NRSS ##########################

layer {
  		name: "predicted_saliency_map_level_1_c0"
  		type: "Convolution"
  		bottom: "res5c"
  		top: "predicted_saliency_map_level_1_c0"
  		param {
    			name: "predicted_saliency_map_level_1_c0_w"
    			lr_mult: 10
    			decay_mult: 1
  		}
  		param {
    			name: "predicted_saliency_map_level_1_c0_b"
    			lr_mult: 20
    			decay_mult: 0
  		}
  		convolution_param {
    			num_output: 12
    			kernel_size: 3
    			pad: 6
    			dilation: 6
    			weight_filler {
      					type: "gaussian"
      					std: 0.01
    			}
    			bias_filler {
      					type: "constant"
      					value: 0
    			}
  		}
}

layer {
  		name: "predicted_saliency_map_level_1_c1"
  		type: "Convolution"
  		bottom: "res5c"
  		top: "predicted_saliency_map_level_1_c1"
  		param {
    			name: "predicted_saliency_map_level_1_w"
    			lr_mult: 10
    			decay_mult: 1
  		}
  		param {
    			name: "predicted_saliency_map_level_1_c1_b"
    			lr_mult: 20
    			decay_mult: 0
  		}
  		convolution_param {
    			num_output: 12
    			kernel_size: 3
    			dilation: 12
    			pad: 12
    			weight_filler {
      					type: "gaussian"
      					std: 0.01
    			}
    			bias_filler {
      					type: "constant"
      					value: 0
    			}
  		}
}

layer {
  		name: "predicted_saliency_map_level_1_c2"
  		type: "Convolution"
  		bottom: "res5c"
  		top: "predicted_saliency_map_level_1_c2"
  		param {
    			name: "predicted_saliency_map_level_1_c2_w"
    			lr_mult: 10
    			decay_mult: 1
  		}
  		param {
    			name: "predicted_saliency_map_level_1_c2_b"
    			lr_mult: 20
    			decay_mult: 0
  		}
  		convolution_param {
    			num_output: 12
    			kernel_size: 3
    			dilation: 18
    			pad: 18
    			weight_filler {
      					type: "gaussian"
      					std: 0.01
    			}
    			bias_filler {
      					type: "constant"
      					value: 0
    			}
  		}
}

layer {
  		name: "predicted_saliency_map_level_1_c3"
  		type: "Convolution"
  		bottom: "res5c"
  		top: "predicted_saliency_map_level_1_c3"
  		param {
    			name: "predicted_saliency_map_level_1_c3_w"
    			lr_mult: 10
    			decay_mult: 1
  		}
  		param {
    			name: "predicted_saliency_map_level_1_c3_b"
    			lr_mult: 20
    			decay_mult: 0
  		}
  		convolution_param {
    			num_output: 12
    			kernel_size: 3
    			dilation: 24
    			pad: 24
    			weight_filler {
      					type: "gaussian"
      					std: 0.01
    			}
   		 		bias_filler {
      					type: "constant"
      					value: 0
    			}
  		}
}

### SUM the all branches

layer {
        bottom: "predicted_saliency_map_level_1_c0"
        bottom: "predicted_saliency_map_level_1_c1"
        bottom: "predicted_saliency_map_level_1_c2"
        bottom: "predicted_saliency_map_level_1_c3"
        top: "predicted_saliency_map_level_1"
        name: "predicted_saliency_map_level_1"
        type: "Eltwise"
        eltwise_param {
            operation: SUM
        }
}

########   SCM (Block for generating saliency map from the stack reprentation of masks)   ####

layer {
  		name: "predicted_saliency_mask_level_1"
  		type: "Convolution"
  		bottom: "predicted_saliency_map_level_1"
  		top: "predicted_saliency_mask_level_1"
  		param {
    			name: "predicted_saliency_mask_level_1_w"
    			lr_mult: 10
    			decay_mult: 1
  		}
  		param {
    			name: "predicted_saliency_mask_level_1_b"
    			lr_mult: 20
    			decay_mult: 0
  		}
  		convolution_param {
    			num_output: 1
    			kernel_size: 3
    			pad: 1
    			weight_filler {
      					type: "gaussian"
      					std: 0.01
    			}
    			bias_filler {
      					type: "constant"
      					value: 0
    			}
  		}
}


###############  Stage-wise Rank-Aware Refinement Network ###################

############## Refinement Module1 #########################

layer {
  		name: "res4b22_feature_s2"
  		type: "Convolution"
  		bottom: "res4b22"
  		top: "res4b22_feature_s2"
  		param {
    			name: "res4b22_feature_s2_w"
    			lr_mult: 10
    			decay_mult: 1
  		}
  		param {
    			name: "res4b22_feature_s2_b"
    			lr_mult: 20
    			decay_mult: 0
  		}
  		convolution_param {
    			num_output: 12
    			kernel_size: 3
    			pad: 2
    			dilation: 2
    			weight_filler {
      					type: "gaussian"
      					std: 0.01
    			}
    			bias_filler {
     					type: "constant"
      					value: 0
    			}
  		}
}

layer {
		top: "res4b22_feature_s2"
		bottom: "res4b22_feature_s2"
		name: "res4b22_feature_s2_relu"
		type: "ReLU"
}

layer {
  		name: "res5b_feature_s2"
  		type: "Convolution"
  		bottom: "res5b"
  		top: "res5b_feature_s2"
  		param {
    			name: "res5b_feature_s2_w"
   			    lr_mult: 10
    			decay_mult: 1
  		}
  		param {
    			name: "res5b_feature_s2_b"
    			lr_mult: 20
    			decay_mult: 0
 	 	}
  		convolution_param {
    			num_output: 12
    			kernel_size: 3
    			pad: 2
    			dilation: 2
    			weight_filler {
      					type: "gaussian"
     				 	std: 0.01
    			}
    			bias_filler {
      					type: "constant"
      					value: 0
   				}
  		}
}

layer {
		top: "res5b_feature_s2"
		bottom: "res5b_feature_s2"
		name: "res5b_feature_s2_relu"
		type: "ReLU"
}

layer{ 
  		bottom:"res4b22_feature_s2"
  		bottom: "res5b_feature_s2"
  		top: "gate_s2"
  		name: "gate_s2"
  		type: "Eltwise"
  		eltwise_param {
    		operation: PROD
  		}
}

layer { 
  		bottom:"gate_s2"
  		bottom: "predicted_saliency_map_level_1"
  		top: "s2_fusion"
  		name: "s2_fusion"
  		type: "Concat"
  		concat_param { 
     		concat_dim: 1
   		} 
}

layer {
  		name: "predicted_saliency_map_level_2"
  		type: "Convolution"
  		bottom: "s2_fusion"
  		top: "predicted_saliency_map_level_2"
  		param {
    			name: "predicted_saliency_map_level_2_w"
    			lr_mult: 10
    			decay_mult: 1
  		}
  		param {
    			name: "predicted_saliency_map_level_2_b"
    			lr_mult: 20
    			decay_mult: 0
  				}
  		convolution_param {
    			num_output: 12
    			kernel_size: 3
    			pad: 2
    			dilation: 2
    			weight_filler {
      					type: "gaussian"
      					std: 0.01
    			}
    			bias_filler {
      					type: "constant"
      					value: 0
    			}
  		}
}

### 	SCM- stage2 (Block for generating saliency map from the stack reprentation of masks)    ####

layer {
  		name: "predicted_saliency_mask_level_2"
  		type: "Convolution"
  		bottom: "predicted_saliency_map_level_2"
  		top: "predicted_saliency_mask_level_2"
  		param {
    			name: "predicted_saliency_mask_level_2_w"
    			lr_mult: 10
    			decay_mult: 1
  		}
  		param {
    			name: "predicted_saliency_mask_level_2_b"
    			lr_mult: 20
    			decay_mult: 0
  		}
  		convolution_param {
    			num_output: 1
    			kernel_size: 3
    			pad: 1
    			weight_filler {
      					type: "gaussian"
      					std: 0.01
    			}
    			bias_filler {
      					type: "constant"
      					value: 0
    			}
  		}
}

############## Refinement Module 2 #########################

layer {
  		name: "res3b3_feature_s3"
  		type: "Convolution"
  		bottom: "res3b3"
  		top: "res3b3_feature_s3"
  		param {
    			name: "res3b3_feature_s3_w"
    			lr_mult: 10
    			decay_mult: 1
  		}
  		param {
    			name: "res3b3_feature_s3_b"
    			lr_mult: 20
    			decay_mult: 0
  		}
  		convolution_param {
    			num_output: 12
    			kernel_size: 3
    			pad: 2
    			dilation: 2
    			weight_filler {
      					type: "gaussian"
      					std: 0.01
    			}	
    			bias_filler {
      					type: "constant"
      					value: 0
    			}
  		}
}

layer {
		top: "res3b3_feature_s3"
		bottom: "res3b3_feature_s3"
		name: "res3b3_feature_s3_relu"
		type: "ReLU"
}


layer{ 
  		bottom:"res3b3_feature_s3"
 		bottom: "res4b22_feature_s2"
  		top: "gate_s3"
  		name: "gate_s3"
  		type: "Eltwise"
 		eltwise_param {
    			operation: PROD
  		}
}

layer { 
  		bottom:"gate_s3"
  		bottom: "predicted_saliency_map_level_2"
  		top: "s3_fusion"
  		name: "s3_fusion"
  		type: "Concat"
  		concat_param { 
     			concat_dim: 1
   		} 
}

layer {
  		name: "predicted_saliency_map_level_3"
  		type: "Convolution"
  		bottom: "s3_fusion"
  		top: "predicted_saliency_map_level_3"
  		param {
    			name: "predicted_saliency_map_level_3_w"
    			lr_mult: 10
    			decay_mult: 1
  		}
  		param {
    			name: "predicted_saliency_map_level_3_b"
    			lr_mult: 20
    			decay_mult: 0
  		}
  		convolution_param {
    			num_output: 12
    			kernel_size: 3
    			pad: 2
    			dilation: 2
    			weight_filler {
      					type: "gaussian"
      					std: 0.01
    			}
    			bias_filler {
      					type: "constant"
      					value: 0
    			}
  		}
}

### 	SCM- stage3 (Block for generating saliency map from the stack reprentation of masks)    ####

layer {
  		name: "predicted_saliency_mask_level_3"
  		type: "Convolution"
  		bottom: "predicted_saliency_map_level_3"
  		top: "predicted_saliency_mask_level_3"
  		param {
    			name: "predicted_saliency_mask_level_3_w"
    			lr_mult: 10
    			decay_mult: 1
  		}
  		param {
    			name: "predicted_saliency_mask_level_3_b"
    			lr_mult: 20
    			decay_mult: 0
  		}
  		convolution_param {
    			num_output: 1
    			kernel_size: 3
    			pad: 1
    			weight_filler {
      					type: "gaussian"
      					std: 0.01
    			}
    			bias_filler {
      					type: "constant"
      					value: 0
    			}
  		}
}


############## Refinement Module 3 #########################

layer {
  		name: "predicted_saliency_map_level_3_upsample"
  		type: "Interp"
  		bottom: "predicted_saliency_map_level_3"
  		top: "predicted_saliency_map_level_3_upsample"
  		interp_param {
    			zoom_factor: 2
    			pad_beg: 0
    			pad_end: 0
  		}
}

layer {
  		name: "res2c_feature_s4"
  		type: "Convolution"
  		bottom: "res2c"
  		top: "res2c_feature_s4"
  		param {
    			name: "res2c_feature_s4_w"
    			lr_mult: 10
    			decay_mult: 1
  		}
  		param {
    			name: "res2c_feature_s4_b"
    			lr_mult: 20
    			decay_mult: 0
  		}
  		convolution_param {
    			num_output: 12
    			kernel_size: 3
    			pad: 2
    			dilation: 2
    			weight_filler {
      					type: "gaussian"
      					std: 0.01
    			}
    			bias_filler {
      					type: "constant"
      					value: 0
    			}
  		}
}

layer {
		top: "res2c_feature_s4"
		bottom: "res2c_feature_s4"
		name: "res2c_feature_s4_relu"
		type: "ReLU"
}

layer {
  		bottom: "res3b3_feature_s3"
  		top: "res3b3_feature_zoom_s4"
  		name: "res3b3_feature_zoom_s4"
  		type: "Interp"
  		interp_param {
    			zoom_factor: 2
    			pad_beg: 0
    			pad_end: 0
  		}
}

layer{ 
  		bottom:"res2c_feature_s4"
  		bottom: "res3b3_feature_zoom_s4"
  		top: "gate_s4"
  		name: "gate_s4"
  		type: "Eltwise"
  		eltwise_param {
    			operation: PROD
  		}
}

layer { 
  		bottom:"gate_s4"
  		bottom: "predicted_saliency_map_level_3_upsample"
  		top: "s4_fusion"
  		name: "s4_fusion"
  		type: "Concat"
  		concat_param { 
     			concat_dim: 1
   		} 
}

layer {
  		name: "predicted_saliency_map_level_4"
  		type: "Convolution"
  		bottom: "s4_fusion"
  		top: "predicted_saliency_map_level_4"
  		param {
    			name: "predicted_saliency_map_level_4_w"
    			lr_mult: 10
    			decay_mult: 1
  		}
  		param {
    			name: "predicted_saliency_map_level_4_b"
    			lr_mult: 20
    			decay_mult: 0
  		}
  		convolution_param {
    			num_output: 12
    			kernel_size: 3
    			pad: 2
    			dilation: 2
    			weight_filler {
      					type: "gaussian"
      					std: 0.01
    			}
    			bias_filler {
      					type: "constant"
      					value: 0
    			}
  		}
}

### 	SCM- stage4 (Block for generating saliency map from the stack reprentation of masks)    ####

layer {
  		name: "predicted_saliency_mask_level_4"
  		type: "Convolution"
  		bottom: "predicted_saliency_map_level_4"
  		top: "predicted_saliency_mask_level_4"
  		param {
    			name: "predicted_saliency_mask_level_4_w"
    			lr_mult: 10
    			decay_mult: 1
  		}
  		param {
    			name: "predicted_saliency_mask_level_4_b"
    			lr_mult: 20
    			decay_mult: 0
  		}
  		convolution_param {
    			num_output: 1
    			kernel_size: 3
    			pad: 1
    			weight_filler {
      					type: "gaussian"
      					std: 0.01
    			}
    			bias_filler {
      					type: "constant"
      					value: 0
    			}
  		}
}


############## Refinement Module 4 #########################


layer {
  		name: "predicted_saliency_map_level_4_upsample"
  		type: "Interp"
  		bottom: "predicted_saliency_map_level_4"
  		top: "predicted_saliency_map_level_4_upsample"
  		interp_param {
    			zoom_factor: 2
    			pad_beg: 0
    			pad_end: 0
  		}
}

layer {
  		name: "conv1_feature_s5"
  		type: "Convolution"
  		bottom: "conv1"
  		top: "conv1_feature_s5"
  		param {
    			name: "conv1_feature_s5_w"
    			lr_mult: 10
    			decay_mult: 1
  		}
  		param {
    			name: "conv1_feature_s5_b"
    			lr_mult: 20
    			decay_mult: 0
  		}
  		convolution_param {
    			num_output: 12
    			kernel_size: 3
    			pad: 2
    			dilation: 2
    			weight_filler {
      					type: "gaussian"
      					std: 0.01
    			}
    			bias_filler {
      					type: "constant"
      					value: 0
    			}
  		}
}

layer {
		top: "conv1_feature_s5"
		bottom: "conv1_feature_s5"
		name: "conv1_feature_s5_relu"
		type: "ReLU"
}

layer {
  		bottom: "res2c_feature_s4"
  		top: "res2c_feature_zoom_s5"
  		name: "res2c_feature_zoom_s5"
  		type: "Interp"
  		interp_param {
    			zoom_factor: 2
    			pad_beg: 0
    			pad_end: 0
  		}
}

layer{ 
  		bottom:"conv1_feature_s5"
  		bottom: "res2c_feature_zoom_s5"
  		top: "gate_s5"
  		name: "gate_s5"
  		type: "Eltwise"
  		eltwise_param {
    			operation: PROD
  		}
}

layer { 
  		bottom:"gate_s5"
  		bottom: "predicted_saliency_map_level_4_upsample"
  		top: "s5_fusion"
  		name: "s5_fusion"
  		type: "Concat"
  		concat_param { 
     			concat_dim: 1
   		} 
}

layer {
  		name: "predicted_saliency_map"
  		type: "Convolution"
  		bottom: "s5_fusion"
  		top: "predicted_saliency_map"
  		param {
    			name: "predicted_saliency_map_w"
    			lr_mult: 10
    			decay_mult: 1
  		}
  		param {
    			name: "predicted_saliency_map_b"
    			lr_mult: 20
    			decay_mult: 0
  		}
  		convolution_param {
    			num_output: 12
    			kernel_size: 3
    			pad: 2
    			dilation: 2
    			weight_filler {
      					type: "gaussian"
      					std: 0.01
    			}
    			bias_filler {
      					type: "constant"
      					value: 0
    			}
  		}
}


### 	SCM- stage5 (Block for generating saliency map from the stack reprentation of masks)    ####

layer {
  		name: "predicted_saliency_mask_level_5"
  		type: "Convolution"
  		bottom: "predicted_saliency_map"
  		top: "predicted_saliency_mask_level_5"
  		param {
    			name: "predicted_saliency_mask_level_5_w"
    			lr_mult: 10
    			decay_mult: 1
  		}
  		param {
    			name: "predicted_saliency_mask_level_5_b"
    			lr_mult: 20
    			decay_mult: 0
  		}
  		convolution_param {
    			num_output: 1
    			kernel_size: 3
    			pad: 1
    			weight_filler {
      					type: "gaussian"
      					std: 0.01
    			}
    			bias_filler {
      					type: "constant"
      					value: 0
    			}
  		}
}

layer {
  		bottom: "predicted_saliency_mask_level_1"
  		top: "predicted_saliency_mask_level_1_interp"
  		name: "predicted_saliency_mask_level_1_interp"
  		type: "Interp"
  		interp_param {
    			height : 161
    			width : 161
    			pad_beg: 0
    			pad_end: 0
  		}
}

layer {
  		bottom: "predicted_saliency_mask_level_2"
  		top: "predicted_saliency_mask_level_2_interp"
  		name: "predicted_saliency_mask_level_2_interp"
  		type: "Interp"
  		interp_param {
    			height : 161
    			width : 161
    			pad_beg: 0
    			pad_end: 0
  		}
}

layer {
  		bottom: "predicted_saliency_mask_level_3"
  		top: "predicted_saliency_mask_level_3_interp"
  		name: "predicted_saliency_mask_level_3_interp"
  		type: "Interp"
  		interp_param {
    			height : 161
    			width : 161
    			pad_beg: 0
    			pad_end: 0
  		}
}

layer {
  		bottom: "predicted_saliency_mask_level_4"
  		top: "predicted_saliency_mask_level_4_interp"
  		name: "predicted_saliency_mask_level_4_interp"
  		type: "Interp"
  		interp_param {
    			height : 161
    			width : 161
    			pad_beg: 0
    			pad_end: 0
  		}
}


layer { 
  		bottom:"predicted_saliency_mask_level_1_interp"
  		bottom:"predicted_saliency_mask_level_2_interp"
  		bottom:"predicted_saliency_mask_level_3_interp"
  		bottom:"predicted_saliency_mask_level_4_interp"
  		bottom:"predicted_saliency_mask_level_5"
  		top: "predicted_saliency_mask_concat"
  		name: "predicted_saliency_mask_concat"
  		type: "Concat"
  		concat_param { 
     			concat_dim: 1
   		} 
}

layer {
  		name: "predicted_saliency_mask"
  		type: "Convolution"
  		bottom: "predicted_saliency_mask_concat"
  		top: "predicted_saliency_mask"
  		param {
    			name: "predicted_saliency_mask_w"
    			lr_mult: 10
    			decay_mult: 1
  		}
  		param {
    			name: "predicted_saliency_mask_b"
    			lr_mult: 20
    			decay_mult: 0
  		}
  		convolution_param {
    			num_output: 1
    			kernel_size: 3
    			pad: 1
    			weight_filler {
      					type: "gaussian"
      					std: 0.01
    			}
    			bias_filler {
      					type: "constant"
      					value: 0
    			}
  		}
}


################## compute loss ####################


######################   NRSS #############################

#--- Stage-1 Loss for saliency map --- 

layer {
  		bottom: "label"
  		top: "saliency_map_shrink_level_1"
  		name: "saliency_map_shrink_level_1"
  		type: "Interp"
  		interp_param {
    			shrink_factor: 8
    			pad_beg: 0
    			pad_end: 0
  		}
}

layer {
  		name: "saliency_score_level_1_error"
  		type: "EuclideanLoss"
  		bottom: "predicted_saliency_map_level_1"
  		bottom: "saliency_map_shrink_level_1"
  		top: "saliency_score_level_1_error"
  		loss_weight: 1
}

#--- Stage 2 Loss for saliency map --- 

layer {
  		bottom: "label"
  		top: "saliency_map_shrink_level_2"
  		name: "saliency_map_shrink_level_2"
  		type: "Interp"
  		interp_param {
    			shrink_factor: 8
    			pad_beg: 0
    			pad_end: 0
  		}
}

layer {
  		name: "saliency_score_level_2_error"
  		type: "EuclideanLoss"
  		bottom: "predicted_saliency_map_level_2"
  		bottom: "saliency_map_shrink_level_2"
  		top: "saliency_score_level_2_error"
  		loss_weight: 1
}

#--- Stage 3 Loss for saliency map --- 

layer {
  		bottom: "label"
  		top: "saliency_map_shrink_level_3"
  		name: "saliency_map_shrink_level_3"
  		type: "Interp"
  		interp_param {
    			shrink_factor: 8
    			pad_beg: 0
    			pad_end: 0
  		}
}

layer {
  		name: "saliency_score_level_3_error"
  		type: "EuclideanLoss"
  		bottom: "predicted_saliency_map_level_3"
  		bottom: "saliency_map_shrink_level_3"
  		top: "saliency_score_level_3_error"
  		loss_weight: 1
}

#--- Stage 4 Loss for saliency map --- 

layer {
  		bottom: "label"
  		top: "saliency_map_shrink_level_4"
  		name: "saliency_map_shrink_level_4"
  		type: "Interp"
  		interp_param {
    			shrink_factor: 4
    			pad_beg: 0
    			pad_end: 0
 		}
}

layer {
  		name: "saliency_score_level_4_error"
  		type: "EuclideanLoss"
  		bottom: "predicted_saliency_map_level_4"
  		bottom: "saliency_map_shrink_level_4"
  		top: "saliency_score_level_4_error"
  		loss_weight: 1
}


######################   SCM -> Saliency Map losses #############################

layer {
  		bottom: "label"
  		top: "saliency_map_shrink"
  		name: "saliency_map_shrink"
  		type: "Interp"
  		interp_param {
    			shrink_factor: 2
    			pad_beg: 0
    			pad_end: 0
  		}
}

layer {
  		name: "saliency_score_error"
  		type: "EuclideanLoss"
  		bottom: "predicted_saliency_map"
  		bottom: "saliency_map_shrink"
  		top: "saliency_score_level"
  		loss_weight: 1
}

###### Slicing Label

layer {
  		name: "slicer_label"
  		type: "Slice"
  		bottom: "label"
  		## Example of label with a shape N x 3 x 1 x 1
  		top: "label1"
  		top: "label2"
  		slice_param {
    			axis: 1
    			slice_point: 1
  		}
}

####  Stage-1 #####

layer {
  		bottom: "label1"
  		top: "saliency_mask_shrink_level_1"
  		name: "saliency_mask_shrink_level_1"
  		type: "Interp"
  		interp_param {
    			shrink_factor: 8
    			pad_beg: 0
    			pad_end: 0
  		}
}

layer {
  		name: "saliency_mask_error_level_1"
  		type: "EuclideanLoss"
  		bottom: "predicted_saliency_mask_level_1"
  		bottom: "saliency_mask_shrink_level_1"
  		top: "saliency_mask_error_level_1"
  		loss_weight: 1
}

####  Stage-2 #####

layer {
  		name: "saliency_mask_error_level_2"
  		type: "EuclideanLoss"
  		bottom: "predicted_saliency_mask_level_2"
  		bottom: "saliency_mask_shrink_level_1"
  		top: "saliency_mask_error_level_2"
  		loss_weight: 1
}


####  Stage-3 #####

layer {
  		name: "saliency_mask_error_level_3"
  		type: "EuclideanLoss"
  		bottom: "predicted_saliency_mask_level_3"
  		bottom: "saliency_mask_shrink_level_1"
  		top: "saliency_mask_error_level_3"
  		loss_weight: 1
}


####  Stage-4 #####

layer {
  		bottom: "label1"
  		top: "saliency_mask_shrink_level_4"
  		name: "saliency_mask_shrink_level_4"
  		type: "Interp"
  		interp_param {
    			shrink_factor: 4
    			pad_beg: 0
    			pad_end: 0
  		}
}


layer {
  		name: "saliency_mask_error_level_4"
  		type: "EuclideanLoss"
  		bottom: "predicted_saliency_mask_level_4"
  		bottom: "saliency_mask_shrink_level_4"
  		top: "saliency_mask_error_level_4"
  		loss_weight: 1
}


####  Stage-5 #####

layer {
  		bottom: "label1"
  		top: "saliency_mask_shrink_level_5"
  		name: "saliency_mask_shrink_level_5"
  		type: "Interp"
  		interp_param {
    			shrink_factor: 2
    			pad_beg: 0
    			pad_end: 0
  		}
}

layer {
  		name: "saliency_mask_error_level_5"
  		type: "EuclideanLoss"
  		bottom: "predicted_saliency_mask"
  		bottom: "saliency_mask_shrink_level_5"
  		top: "saliency_mask_error_level_5"
  		loss_weight: 1
}


layer {
		name: "label_silence"
		type: "Silence"
		bottom: "label2"
}

layer {
		name: "count_silence"
		type: "Silence"
		bottom: "count"
}


